DataParallel(
  (module): DRN(
    (upsample): Upsample(scale_factor=8.0, mode=bicubic)
    (sub_mean): MeanShift(3, 3, kernel_size=(1, 1), stride=(1, 1))
    (head): Conv2d(3, 8, kernel_size=(3, 3), stride=(1, 1), padding=(1, 1))
    (down): ModuleList(
      (0): DownBlock(
        (dual_module): Sequential(
          (0): Sequential(
            (0): Conv2d(8, 8, kernel_size=(3, 3), stride=(2, 2), padding=(1, 1), bias=False)
            (1): LeakyReLU(negative_slope=0.2, inplace=True)
          )
          (1): Conv2d(8, 16, kernel_size=(3, 3), stride=(1, 1), padding=(1, 1), bias=False)
        )
      )
      (1): DownBlock(
        (dual_module): Sequential(
          (0): Sequential(
            (0): Conv2d(16, 16, kernel_size=(3, 3), stride=(2, 2), padding=(1, 1), bias=False)
            (1): LeakyReLU(negative_slope=0.2, inplace=True)
          )
          (1): Conv2d(16, 32, kernel_size=(3, 3), stride=(1, 1), padding=(1, 1), bias=False)
        )
      )
      (2): DownBlock(
        (dual_module): Sequential(
          (0): Sequential(
            (0): Conv2d(32, 32, kernel_size=(3, 3), stride=(2, 2), padding=(1, 1), bias=False)
            (1): LeakyReLU(negative_slope=0.2, inplace=True)
          )
          (1): Conv2d(32, 64, kernel_size=(3, 3), stride=(1, 1), padding=(1, 1), bias=False)
        )
      )
    )
    (up_blocks): ModuleList(
      (0): Sequential(
        (0): RCAB(
          (body): Sequential(
            (0): Conv2d(64, 64, kernel_size=(3, 3), stride=(1, 1), padding=(1, 1))
            (1): ReLU(inplace=True)
            (2): Conv2d(64, 64, kernel_size=(3, 3), stride=(1, 1), padding=(1, 1))
            (3): CALayer(
              (avg_pool): AdaptiveAvgPool2d(output_size=1)
              (conv_du): Sequential(
                (0): Conv2d(64, 4, kernel_size=(1, 1), stride=(1, 1))
                (1): ReLU(inplace=True)
                (2): Conv2d(4, 64, kernel_size=(1, 1), stride=(1, 1))
                (3): Sigmoid()
              )
            )
          )
        )
        (1): RCAB(
          (body): Sequential(
            (0): Conv2d(64, 64, kernel_size=(3, 3), stride=(1, 1), padding=(1, 1))
            (1): ReLU(inplace=True)
            (2): Conv2d(64, 64, kernel_size=(3, 3), stride=(1, 1), padding=(1, 1))
            (3): CALayer(
              (avg_pool): AdaptiveAvgPool2d(output_size=1)
              (conv_du): Sequential(
                (0): Conv2d(64, 4, kernel_size=(1, 1), stride=(1, 1))
                (1): ReLU(inplace=True)
                (2): Conv2d(4, 64, kernel_size=(1, 1), stride=(1, 1))
                (3): Sigmoid()
              )
            )
          )
        )
        (2): RCAB(
          (body): Sequential(
            (0): Conv2d(64, 64, kernel_size=(3, 3), stride=(1, 1), padding=(1, 1))
            (1): ReLU(inplace=True)
            (2): Conv2d(64, 64, kernel_size=(3, 3), stride=(1, 1), padding=(1, 1))
            (3): CALayer(
              (avg_pool): AdaptiveAvgPool2d(output_size=1)
              (conv_du): Sequential(
                (0): Conv2d(64, 4, kernel_size=(1, 1), stride=(1, 1))
                (1): ReLU(inplace=True)
                (2): Conv2d(4, 64, kernel_size=(1, 1), stride=(1, 1))
                (3): Sigmoid()
              )
            )
          )
        )
        (3): RCAB(
          (body): Sequential(
            (0): Conv2d(64, 64, kernel_size=(3, 3), stride=(1, 1), padding=(1, 1))
            (1): ReLU(inplace=True)
            (2): Conv2d(64, 64, kernel_size=(3, 3), stride=(1, 1), padding=(1, 1))
            (3): CALayer(
              (avg_pool): AdaptiveAvgPool2d(output_size=1)
              (conv_du): Sequential(
                (0): Conv2d(64, 4, kernel_size=(1, 1), stride=(1, 1))
                (1): ReLU(inplace=True)
                (2): Conv2d(4, 64, kernel_size=(1, 1), stride=(1, 1))
                (3): Sigmoid()
              )
            )
          )
        )
        (4): RCAB(
          (body): Sequential(
            (0): Conv2d(64, 64, kernel_size=(3, 3), stride=(1, 1), padding=(1, 1))
            (1): ReLU(inplace=True)
            (2): Conv2d(64, 64, kernel_size=(3, 3), stride=(1, 1), padding=(1, 1))
            (3): CALayer(
              (avg_pool): AdaptiveAvgPool2d(output_size=1)
              (conv_du): Sequential(
                (0): Conv2d(64, 4, kernel_size=(1, 1), stride=(1, 1))
                (1): ReLU(inplace=True)
                (2): Conv2d(4, 64, kernel_size=(1, 1), stride=(1, 1))
                (3): Sigmoid()
              )
            )
          )
        )
        (5): RCAB(
          (body): Sequential(
            (0): Conv2d(64, 64, kernel_size=(3, 3), stride=(1, 1), padding=(1, 1))
            (1): ReLU(inplace=True)
            (2): Conv2d(64, 64, kernel_size=(3, 3), stride=(1, 1), padding=(1, 1))
            (3): CALayer(
              (avg_pool): AdaptiveAvgPool2d(output_size=1)
              (conv_du): Sequential(
                (0): Conv2d(64, 4, kernel_size=(1, 1), stride=(1, 1))
                (1): ReLU(inplace=True)
                (2): Conv2d(4, 64, kernel_size=(1, 1), stride=(1, 1))
                (3): Sigmoid()
              )
            )
          )
        )
        (6): RCAB(
          (body): Sequential(
            (0): Conv2d(64, 64, kernel_size=(3, 3), stride=(1, 1), padding=(1, 1))
            (1): ReLU(inplace=True)
            (2): Conv2d(64, 64, kernel_size=(3, 3), stride=(1, 1), padding=(1, 1))
            (3): CALayer(
              (avg_pool): AdaptiveAvgPool2d(output_size=1)
              (conv_du): Sequential(
                (0): Conv2d(64, 4, kernel_size=(1, 1), stride=(1, 1))
                (1): ReLU(inplace=True)
                (2): Conv2d(4, 64, kernel_size=(1, 1), stride=(1, 1))
                (3): Sigmoid()
              )
            )
          )
        )
        (7): RCAB(
          (body): Sequential(
            (0): Conv2d(64, 64, kernel_size=(3, 3), stride=(1, 1), padding=(1, 1))
            (1): ReLU(inplace=True)
            (2): Conv2d(64, 64, kernel_size=(3, 3), stride=(1, 1), padding=(1, 1))
            (3): CALayer(
              (avg_pool): AdaptiveAvgPool2d(output_size=1)
              (conv_du): Sequential(
                (0): Conv2d(64, 4, kernel_size=(1, 1), stride=(1, 1))
                (1): ReLU(inplace=True)
                (2): Conv2d(4, 64, kernel_size=(1, 1), stride=(1, 1))
                (3): Sigmoid()
              )
            )
          )
        )
        (8): RCAB(
          (body): Sequential(
            (0): Conv2d(64, 64, kernel_size=(3, 3), stride=(1, 1), padding=(1, 1))
            (1): ReLU(inplace=True)
            (2): Conv2d(64, 64, kernel_size=(3, 3), stride=(1, 1), padding=(1, 1))
            (3): CALayer(
              (avg_pool): AdaptiveAvgPool2d(output_size=1)
              (conv_du): Sequential(
                (0): Conv2d(64, 4, kernel_size=(1, 1), stride=(1, 1))
                (1): ReLU(inplace=True)
                (2): Conv2d(4, 64, kernel_size=(1, 1), stride=(1, 1))
                (3): Sigmoid()
              )
            )
          )
        )
        (9): RCAB(
          (body): Sequential(
            (0): Conv2d(64, 64, kernel_size=(3, 3), stride=(1, 1), padding=(1, 1))
            (1): ReLU(inplace=True)
            (2): Conv2d(64, 64, kernel_size=(3, 3), stride=(1, 1), padding=(1, 1))
            (3): CALayer(
              (avg_pool): AdaptiveAvgPool2d(output_size=1)
              (conv_du): Sequential(
                (0): Conv2d(64, 4, kernel_size=(1, 1), stride=(1, 1))
                (1): ReLU(inplace=True)
                (2): Conv2d(4, 64, kernel_size=(1, 1), stride=(1, 1))
                (3): Sigmoid()
              )
            )
          )
        )
        (10): RCAB(
          (body): Sequential(
            (0): Conv2d(64, 64, kernel_size=(3, 3), stride=(1, 1), padding=(1, 1))
            (1): ReLU(inplace=True)
            (2): Conv2d(64, 64, kernel_size=(3, 3), stride=(1, 1), padding=(1, 1))
            (3): CALayer(
              (avg_pool): AdaptiveAvgPool2d(output_size=1)
              (conv_du): Sequential(
                (0): Conv2d(64, 4, kernel_size=(1, 1), stride=(1, 1))
                (1): ReLU(inplace=True)
                (2): Conv2d(4, 64, kernel_size=(1, 1), stride=(1, 1))
                (3): Sigmoid()
              )
            )
          )
        )
        (11): RCAB(
          (body): Sequential(
            (0): Conv2d(64, 64, kernel_size=(3, 3), stride=(1, 1), padding=(1, 1))
            (1): ReLU(inplace=True)
            (2): Conv2d(64, 64, kernel_size=(3, 3), stride=(1, 1), padding=(1, 1))
            (3): CALayer(
              (avg_pool): AdaptiveAvgPool2d(output_size=1)
              (conv_du): Sequential(
                (0): Conv2d(64, 4, kernel_size=(1, 1), stride=(1, 1))
                (1): ReLU(inplace=True)
                (2): Conv2d(4, 64, kernel_size=(1, 1), stride=(1, 1))
                (3): Sigmoid()
              )
            )
          )
        )
        (12): RCAB(
          (body): Sequential(
            (0): Conv2d(64, 64, kernel_size=(3, 3), stride=(1, 1), padding=(1, 1))
            (1): ReLU(inplace=True)
            (2): Conv2d(64, 64, kernel_size=(3, 3), stride=(1, 1), padding=(1, 1))
            (3): CALayer(
              (avg_pool): AdaptiveAvgPool2d(output_size=1)
              (conv_du): Sequential(
                (0): Conv2d(64, 4, kernel_size=(1, 1), stride=(1, 1))
                (1): ReLU(inplace=True)
                (2): Conv2d(4, 64, kernel_size=(1, 1), stride=(1, 1))
                (3): Sigmoid()
              )
            )
          )
        )
        (13): RCAB(
          (body): Sequential(
            (0): Conv2d(64, 64, kernel_size=(3, 3), stride=(1, 1), padding=(1, 1))
            (1): ReLU(inplace=True)
            (2): Conv2d(64, 64, kernel_size=(3, 3), stride=(1, 1), padding=(1, 1))
            (3): CALayer(
              (avg_pool): AdaptiveAvgPool2d(output_size=1)
              (conv_du): Sequential(
                (0): Conv2d(64, 4, kernel_size=(1, 1), stride=(1, 1))
                (1): ReLU(inplace=True)
                (2): Conv2d(4, 64, kernel_size=(1, 1), stride=(1, 1))
                (3): Sigmoid()
              )
            )
          )
        )
        (14): RCAB(
          (body): Sequential(
            (0): Conv2d(64, 64, kernel_size=(3, 3), stride=(1, 1), padding=(1, 1))
            (1): ReLU(inplace=True)
            (2): Conv2d(64, 64, kernel_size=(3, 3), stride=(1, 1), padding=(1, 1))
            (3): CALayer(
              (avg_pool): AdaptiveAvgPool2d(output_size=1)
              (conv_du): Sequential(
                (0): Conv2d(64, 4, kernel_size=(1, 1), stride=(1, 1))
                (1): ReLU(inplace=True)
                (2): Conv2d(4, 64, kernel_size=(1, 1), stride=(1, 1))
                (3): Sigmoid()
              )
            )
          )
        )
        (15): RCAB(
          (body): Sequential(
            (0): Conv2d(64, 64, kernel_size=(3, 3), stride=(1, 1), padding=(1, 1))
            (1): ReLU(inplace=True)
            (2): Conv2d(64, 64, kernel_size=(3, 3), stride=(1, 1), padding=(1, 1))
            (3): CALayer(
              (avg_pool): AdaptiveAvgPool2d(output_size=1)
              (conv_du): Sequential(
                (0): Conv2d(64, 4, kernel_size=(1, 1), stride=(1, 1))
                (1): ReLU(inplace=True)
                (2): Conv2d(4, 64, kernel_size=(1, 1), stride=(1, 1))
                (3): Sigmoid()
              )
            )
          )
        )
        (16): RCAB(
          (body): Sequential(
            (0): Conv2d(64, 64, kernel_size=(3, 3), stride=(1, 1), padding=(1, 1))
            (1): ReLU(inplace=True)
            (2): Conv2d(64, 64, kernel_size=(3, 3), stride=(1, 1), padding=(1, 1))
            (3): CALayer(
              (avg_pool): AdaptiveAvgPool2d(output_size=1)
              (conv_du): Sequential(
                (0): Conv2d(64, 4, kernel_size=(1, 1), stride=(1, 1))
                (1): ReLU(inplace=True)
                (2): Conv2d(4, 64, kernel_size=(1, 1), stride=(1, 1))
                (3): Sigmoid()
              )
            )
          )
        )
        (17): RCAB(
          (body): Sequential(
            (0): Conv2d(64, 64, kernel_size=(3, 3), stride=(1, 1), padding=(1, 1))
            (1): ReLU(inplace=True)
            (2): Conv2d(64, 64, kernel_size=(3, 3), stride=(1, 1), padding=(1, 1))
            (3): CALayer(
              (avg_pool): AdaptiveAvgPool2d(output_size=1)
              (conv_du): Sequential(
                (0): Conv2d(64, 4, kernel_size=(1, 1), stride=(1, 1))
                (1): ReLU(inplace=True)
                (2): Conv2d(4, 64, kernel_size=(1, 1), stride=(1, 1))
                (3): Sigmoid()
              )
            )
          )
        )
        (18): RCAB(
          (body): Sequential(
            (0): Conv2d(64, 64, kernel_size=(3, 3), stride=(1, 1), padding=(1, 1))
            (1): ReLU(inplace=True)
            (2): Conv2d(64, 64, kernel_size=(3, 3), stride=(1, 1), padding=(1, 1))
            (3): CALayer(
              (avg_pool): AdaptiveAvgPool2d(output_size=1)
              (conv_du): Sequential(
                (0): Conv2d(64, 4, kernel_size=(1, 1), stride=(1, 1))
                (1): ReLU(inplace=True)
                (2): Conv2d(4, 64, kernel_size=(1, 1), stride=(1, 1))
                (3): Sigmoid()
              )
            )
          )
        )
        (19): RCAB(
          (body): Sequential(
            (0): Conv2d(64, 64, kernel_size=(3, 3), stride=(1, 1), padding=(1, 1))
            (1): ReLU(inplace=True)
            (2): Conv2d(64, 64, kernel_size=(3, 3), stride=(1, 1), padding=(1, 1))
            (3): CALayer(
              (avg_pool): AdaptiveAvgPool2d(output_size=1)
              (conv_du): Sequential(
                (0): Conv2d(64, 4, kernel_size=(1, 1), stride=(1, 1))
                (1): ReLU(inplace=True)
                (2): Conv2d(4, 64, kernel_size=(1, 1), stride=(1, 1))
                (3): Sigmoid()
              )
            )
          )
        )
        (20): RCAB(
          (body): Sequential(
            (0): Conv2d(64, 64, kernel_size=(3, 3), stride=(1, 1), padding=(1, 1))
            (1): ReLU(inplace=True)
            (2): Conv2d(64, 64, kernel_size=(3, 3), stride=(1, 1), padding=(1, 1))
            (3): CALayer(
              (avg_pool): AdaptiveAvgPool2d(output_size=1)
              (conv_du): Sequential(
                (0): Conv2d(64, 4, kernel_size=(1, 1), stride=(1, 1))
                (1): ReLU(inplace=True)
                (2): Conv2d(4, 64, kernel_size=(1, 1), stride=(1, 1))
                (3): Sigmoid()
              )
            )
          )
        )
        (21): RCAB(
          (body): Sequential(
            (0): Conv2d(64, 64, kernel_size=(3, 3), stride=(1, 1), padding=(1, 1))
            (1): ReLU(inplace=True)
            (2): Conv2d(64, 64, kernel_size=(3, 3), stride=(1, 1), padding=(1, 1))
            (3): CALayer(
              (avg_pool): AdaptiveAvgPool2d(output_size=1)
              (conv_du): Sequential(
                (0): Conv2d(64, 4, kernel_size=(1, 1), stride=(1, 1))
                (1): ReLU(inplace=True)
                (2): Conv2d(4, 64, kernel_size=(1, 1), stride=(1, 1))
                (3): Sigmoid()
              )
            )
          )
        )
        (22): RCAB(
          (body): Sequential(
            (0): Conv2d(64, 64, kernel_size=(3, 3), stride=(1, 1), padding=(1, 1))
            (1): ReLU(inplace=True)
            (2): Conv2d(64, 64, kernel_size=(3, 3), stride=(1, 1), padding=(1, 1))
            (3): CALayer(
              (avg_pool): AdaptiveAvgPool2d(output_size=1)
              (conv_du): Sequential(
                (0): Conv2d(64, 4, kernel_size=(1, 1), stride=(1, 1))
                (1): ReLU(inplace=True)
                (2): Conv2d(4, 64, kernel_size=(1, 1), stride=(1, 1))
                (3): Sigmoid()
              )
            )
          )
        )
        (23): RCAB(
          (body): Sequential(
            (0): Conv2d(64, 64, kernel_size=(3, 3), stride=(1, 1), padding=(1, 1))
            (1): ReLU(inplace=True)
            (2): Conv2d(64, 64, kernel_size=(3, 3), stride=(1, 1), padding=(1, 1))
            (3): CALayer(
              (avg_pool): AdaptiveAvgPool2d(output_size=1)
              (conv_du): Sequential(
                (0): Conv2d(64, 4, kernel_size=(1, 1), stride=(1, 1))
                (1): ReLU(inplace=True)
                (2): Conv2d(4, 64, kernel_size=(1, 1), stride=(1, 1))
                (3): Sigmoid()
              )
            )
          )
        )
        (24): RCAB(
          (body): Sequential(
            (0): Conv2d(64, 64, kernel_size=(3, 3), stride=(1, 1), padding=(1, 1))
            (1): ReLU(inplace=True)
            (2): Conv2d(64, 64, kernel_size=(3, 3), stride=(1, 1), padding=(1, 1))
            (3): CALayer(
              (avg_pool): AdaptiveAvgPool2d(output_size=1)
              (conv_du): Sequential(
                (0): Conv2d(64, 4, kernel_size=(1, 1), stride=(1, 1))
                (1): ReLU(inplace=True)
                (2): Conv2d(4, 64, kernel_size=(1, 1), stride=(1, 1))
                (3): Sigmoid()
              )
            )
          )
        )
        (25): RCAB(
          (body): Sequential(
            (0): Conv2d(64, 64, kernel_size=(3, 3), stride=(1, 1), padding=(1, 1))
            (1): ReLU(inplace=True)
            (2): Conv2d(64, 64, kernel_size=(3, 3), stride=(1, 1), padding=(1, 1))
            (3): CALayer(
              (avg_pool): AdaptiveAvgPool2d(output_size=1)
              (conv_du): Sequential(
                (0): Conv2d(64, 4, kernel_size=(1, 1), stride=(1, 1))
                (1): ReLU(inplace=True)
                (2): Conv2d(4, 64, kernel_size=(1, 1), stride=(1, 1))
                (3): Sigmoid()
              )
            )
          )
        )
        (26): RCAB(
          (body): Sequential(
            (0): Conv2d(64, 64, kernel_size=(3, 3), stride=(1, 1), padding=(1, 1))
            (1): ReLU(inplace=True)
            (2): Conv2d(64, 64, kernel_size=(3, 3), stride=(1, 1), padding=(1, 1))
            (3): CALayer(
              (avg_pool): AdaptiveAvgPool2d(output_size=1)
              (conv_du): Sequential(
                (0): Conv2d(64, 4, kernel_size=(1, 1), stride=(1, 1))
                (1): ReLU(inplace=True)
                (2): Conv2d(4, 64, kernel_size=(1, 1), stride=(1, 1))
                (3): Sigmoid()
              )
            )
          )
        )
        (27): RCAB(
          (body): Sequential(
            (0): Conv2d(64, 64, kernel_size=(3, 3), stride=(1, 1), padding=(1, 1))
            (1): ReLU(inplace=True)
            (2): Conv2d(64, 64, kernel_size=(3, 3), stride=(1, 1), padding=(1, 1))
            (3): CALayer(
              (avg_pool): AdaptiveAvgPool2d(output_size=1)
              (conv_du): Sequential(
                (0): Conv2d(64, 4, kernel_size=(1, 1), stride=(1, 1))
                (1): ReLU(inplace=True)
                (2): Conv2d(4, 64, kernel_size=(1, 1), stride=(1, 1))
                (3): Sigmoid()
              )
            )
          )
        )
        (28): RCAB(
          (body): Sequential(
            (0): Conv2d(64, 64, kernel_size=(3, 3), stride=(1, 1), padding=(1, 1))
            (1): ReLU(inplace=True)
            (2): Conv2d(64, 64, kernel_size=(3, 3), stride=(1, 1), padding=(1, 1))
            (3): CALayer(
              (avg_pool): AdaptiveAvgPool2d(output_size=1)
              (conv_du): Sequential(
                (0): Conv2d(64, 4, kernel_size=(1, 1), stride=(1, 1))
                (1): ReLU(inplace=True)
                (2): Conv2d(4, 64, kernel_size=(1, 1), stride=(1, 1))
                (3): Sigmoid()
              )
            )
          )
        )
        (29): RCAB(
          (body): Sequential(
            (0): Conv2d(64, 64, kernel_size=(3, 3), stride=(1, 1), padding=(1, 1))
            (1): ReLU(inplace=True)
            (2): Conv2d(64, 64, kernel_size=(3, 3), stride=(1, 1), padding=(1, 1))
            (3): CALayer(
              (avg_pool): AdaptiveAvgPool2d(output_size=1)
              (conv_du): Sequential(
                (0): Conv2d(64, 4, kernel_size=(1, 1), stride=(1, 1))
                (1): ReLU(inplace=True)
                (2): Conv2d(4, 64, kernel_size=(1, 1), stride=(1, 1))
                (3): Sigmoid()
              )
            )
          )
        )
        (30): Upsampler(
          (0): Conv2d(64, 256, kernel_size=(3, 3), stride=(1, 1), padding=(1, 1))
          (1): PixelShuffle(upscale_factor=2)
        )
        (31): Conv2d(64, 32, kernel_size=(1, 1), stride=(1, 1))
      )
      (1): Sequential(
        (0): RCAB(
          (body): Sequential(
            (0): Conv2d(64, 64, kernel_size=(3, 3), stride=(1, 1), padding=(1, 1))
            (1): ReLU(inplace=True)
            (2): Conv2d(64, 64, kernel_size=(3, 3), stride=(1, 1), padding=(1, 1))
            (3): CALayer(
              (avg_pool): AdaptiveAvgPool2d(output_size=1)
              (conv_du): Sequential(
                (0): Conv2d(64, 4, kernel_size=(1, 1), stride=(1, 1))
                (1): ReLU(inplace=True)
                (2): Conv2d(4, 64, kernel_size=(1, 1), stride=(1, 1))
                (3): Sigmoid()
              )
            )
          )
        )
        (1): RCAB(
          (body): Sequential(
            (0): Conv2d(64, 64, kernel_size=(3, 3), stride=(1, 1), padding=(1, 1))
            (1): ReLU(inplace=True)
            (2): Conv2d(64, 64, kernel_size=(3, 3), stride=(1, 1), padding=(1, 1))
            (3): CALayer(
              (avg_pool): AdaptiveAvgPool2d(output_size=1)
              (conv_du): Sequential(
                (0): Conv2d(64, 4, kernel_size=(1, 1), stride=(1, 1))
                (1): ReLU(inplace=True)
                (2): Conv2d(4, 64, kernel_size=(1, 1), stride=(1, 1))
                (3): Sigmoid()
              )
            )
          )
        )
        (2): RCAB(
          (body): Sequential(
            (0): Conv2d(64, 64, kernel_size=(3, 3), stride=(1, 1), padding=(1, 1))
            (1): ReLU(inplace=True)
            (2): Conv2d(64, 64, kernel_size=(3, 3), stride=(1, 1), padding=(1, 1))
            (3): CALayer(
              (avg_pool): AdaptiveAvgPool2d(output_size=1)
              (conv_du): Sequential(
                (0): Conv2d(64, 4, kernel_size=(1, 1), stride=(1, 1))
                (1): ReLU(inplace=True)
                (2): Conv2d(4, 64, kernel_size=(1, 1), stride=(1, 1))
                (3): Sigmoid()
              )
            )
          )
        )
        (3): RCAB(
          (body): Sequential(
            (0): Conv2d(64, 64, kernel_size=(3, 3), stride=(1, 1), padding=(1, 1))
            (1): ReLU(inplace=True)
            (2): Conv2d(64, 64, kernel_size=(3, 3), stride=(1, 1), padding=(1, 1))
            (3): CALayer(
              (avg_pool): AdaptiveAvgPool2d(output_size=1)
              (conv_du): Sequential(
                (0): Conv2d(64, 4, kernel_size=(1, 1), stride=(1, 1))
                (1): ReLU(inplace=True)
                (2): Conv2d(4, 64, kernel_size=(1, 1), stride=(1, 1))
                (3): Sigmoid()
              )
            )
          )
        )
        (4): RCAB(
          (body): Sequential(
            (0): Conv2d(64, 64, kernel_size=(3, 3), stride=(1, 1), padding=(1, 1))
            (1): ReLU(inplace=True)
            (2): Conv2d(64, 64, kernel_size=(3, 3), stride=(1, 1), padding=(1, 1))
            (3): CALayer(
              (avg_pool): AdaptiveAvgPool2d(output_size=1)
              (conv_du): Sequential(
                (0): Conv2d(64, 4, kernel_size=(1, 1), stride=(1, 1))
                (1): ReLU(inplace=True)
                (2): Conv2d(4, 64, kernel_size=(1, 1), stride=(1, 1))
                (3): Sigmoid()
              )
            )
          )
        )
        (5): RCAB(
          (body): Sequential(
            (0): Conv2d(64, 64, kernel_size=(3, 3), stride=(1, 1), padding=(1, 1))
            (1): ReLU(inplace=True)
            (2): Conv2d(64, 64, kernel_size=(3, 3), stride=(1, 1), padding=(1, 1))
            (3): CALayer(
              (avg_pool): AdaptiveAvgPool2d(output_size=1)
              (conv_du): Sequential(
                (0): Conv2d(64, 4, kernel_size=(1, 1), stride=(1, 1))
                (1): ReLU(inplace=True)
                (2): Conv2d(4, 64, kernel_size=(1, 1), stride=(1, 1))
                (3): Sigmoid()
              )
            )
          )
        )
        (6): RCAB(
          (body): Sequential(
            (0): Conv2d(64, 64, kernel_size=(3, 3), stride=(1, 1), padding=(1, 1))
            (1): ReLU(inplace=True)
            (2): Conv2d(64, 64, kernel_size=(3, 3), stride=(1, 1), padding=(1, 1))
            (3): CALayer(
              (avg_pool): AdaptiveAvgPool2d(output_size=1)
              (conv_du): Sequential(
                (0): Conv2d(64, 4, kernel_size=(1, 1), stride=(1, 1))
                (1): ReLU(inplace=True)
                (2): Conv2d(4, 64, kernel_size=(1, 1), stride=(1, 1))
                (3): Sigmoid()
              )
            )
          )
        )
        (7): RCAB(
          (body): Sequential(
            (0): Conv2d(64, 64, kernel_size=(3, 3), stride=(1, 1), padding=(1, 1))
            (1): ReLU(inplace=True)
            (2): Conv2d(64, 64, kernel_size=(3, 3), stride=(1, 1), padding=(1, 1))
            (3): CALayer(
              (avg_pool): AdaptiveAvgPool2d(output_size=1)
              (conv_du): Sequential(
                (0): Conv2d(64, 4, kernel_size=(1, 1), stride=(1, 1))
                (1): ReLU(inplace=True)
                (2): Conv2d(4, 64, kernel_size=(1, 1), stride=(1, 1))
                (3): Sigmoid()
              )
            )
          )
        )
        (8): RCAB(
          (body): Sequential(
            (0): Conv2d(64, 64, kernel_size=(3, 3), stride=(1, 1), padding=(1, 1))
            (1): ReLU(inplace=True)
            (2): Conv2d(64, 64, kernel_size=(3, 3), stride=(1, 1), padding=(1, 1))
            (3): CALayer(
              (avg_pool): AdaptiveAvgPool2d(output_size=1)
              (conv_du): Sequential(
                (0): Conv2d(64, 4, kernel_size=(1, 1), stride=(1, 1))
                (1): ReLU(inplace=True)
                (2): Conv2d(4, 64, kernel_size=(1, 1), stride=(1, 1))
                (3): Sigmoid()
              )
            )
          )
        )
        (9): RCAB(
          (body): Sequential(
            (0): Conv2d(64, 64, kernel_size=(3, 3), stride=(1, 1), padding=(1, 1))
            (1): ReLU(inplace=True)
            (2): Conv2d(64, 64, kernel_size=(3, 3), stride=(1, 1), padding=(1, 1))
            (3): CALayer(
              (avg_pool): AdaptiveAvgPool2d(output_size=1)
              (conv_du): Sequential(
                (0): Conv2d(64, 4, kernel_size=(1, 1), stride=(1, 1))
                (1): ReLU(inplace=True)
                (2): Conv2d(4, 64, kernel_size=(1, 1), stride=(1, 1))
                (3): Sigmoid()
              )
            )
          )
        )
        (10): RCAB(
          (body): Sequential(
            (0): Conv2d(64, 64, kernel_size=(3, 3), stride=(1, 1), padding=(1, 1))
            (1): ReLU(inplace=True)
            (2): Conv2d(64, 64, kernel_size=(3, 3), stride=(1, 1), padding=(1, 1))
            (3): CALayer(
              (avg_pool): AdaptiveAvgPool2d(output_size=1)
              (conv_du): Sequential(
                (0): Conv2d(64, 4, kernel_size=(1, 1), stride=(1, 1))
                (1): ReLU(inplace=True)
                (2): Conv2d(4, 64, kernel_size=(1, 1), stride=(1, 1))
                (3): Sigmoid()
              )
            )
          )
        )
        (11): RCAB(
          (body): Sequential(
            (0): Conv2d(64, 64, kernel_size=(3, 3), stride=(1, 1), padding=(1, 1))
            (1): ReLU(inplace=True)
            (2): Conv2d(64, 64, kernel_size=(3, 3), stride=(1, 1), padding=(1, 1))
            (3): CALayer(
              (avg_pool): AdaptiveAvgPool2d(output_size=1)
              (conv_du): Sequential(
                (0): Conv2d(64, 4, kernel_size=(1, 1), stride=(1, 1))
                (1): ReLU(inplace=True)
                (2): Conv2d(4, 64, kernel_size=(1, 1), stride=(1, 1))
                (3): Sigmoid()
              )
            )
          )
        )
        (12): RCAB(
          (body): Sequential(
            (0): Conv2d(64, 64, kernel_size=(3, 3), stride=(1, 1), padding=(1, 1))
            (1): ReLU(inplace=True)
            (2): Conv2d(64, 64, kernel_size=(3, 3), stride=(1, 1), padding=(1, 1))
            (3): CALayer(
              (avg_pool): AdaptiveAvgPool2d(output_size=1)
              (conv_du): Sequential(
                (0): Conv2d(64, 4, kernel_size=(1, 1), stride=(1, 1))
                (1): ReLU(inplace=True)
                (2): Conv2d(4, 64, kernel_size=(1, 1), stride=(1, 1))
                (3): Sigmoid()
              )
            )
          )
        )
        (13): RCAB(
          (body): Sequential(
            (0): Conv2d(64, 64, kernel_size=(3, 3), stride=(1, 1), padding=(1, 1))
            (1): ReLU(inplace=True)
            (2): Conv2d(64, 64, kernel_size=(3, 3), stride=(1, 1), padding=(1, 1))
            (3): CALayer(
              (avg_pool): AdaptiveAvgPool2d(output_size=1)
              (conv_du): Sequential(
                (0): Conv2d(64, 4, kernel_size=(1, 1), stride=(1, 1))
                (1): ReLU(inplace=True)
                (2): Conv2d(4, 64, kernel_size=(1, 1), stride=(1, 1))
                (3): Sigmoid()
              )
            )
          )
        )
        (14): RCAB(
          (body): Sequential(
            (0): Conv2d(64, 64, kernel_size=(3, 3), stride=(1, 1), padding=(1, 1))
            (1): ReLU(inplace=True)
            (2): Conv2d(64, 64, kernel_size=(3, 3), stride=(1, 1), padding=(1, 1))
            (3): CALayer(
              (avg_pool): AdaptiveAvgPool2d(output_size=1)
              (conv_du): Sequential(
                (0): Conv2d(64, 4, kernel_size=(1, 1), stride=(1, 1))
                (1): ReLU(inplace=True)
                (2): Conv2d(4, 64, kernel_size=(1, 1), stride=(1, 1))
                (3): Sigmoid()
              )
            )
          )
        )
        (15): RCAB(
          (body): Sequential(
            (0): Conv2d(64, 64, kernel_size=(3, 3), stride=(1, 1), padding=(1, 1))
            (1): ReLU(inplace=True)
            (2): Conv2d(64, 64, kernel_size=(3, 3), stride=(1, 1), padding=(1, 1))
            (3): CALayer(
              (avg_pool): AdaptiveAvgPool2d(output_size=1)
              (conv_du): Sequential(
                (0): Conv2d(64, 4, kernel_size=(1, 1), stride=(1, 1))
                (1): ReLU(inplace=True)
                (2): Conv2d(4, 64, kernel_size=(1, 1), stride=(1, 1))
                (3): Sigmoid()
              )
            )
          )
        )
        (16): RCAB(
          (body): Sequential(
            (0): Conv2d(64, 64, kernel_size=(3, 3), stride=(1, 1), padding=(1, 1))
            (1): ReLU(inplace=True)
            (2): Conv2d(64, 64, kernel_size=(3, 3), stride=(1, 1), padding=(1, 1))
            (3): CALayer(
              (avg_pool): AdaptiveAvgPool2d(output_size=1)
              (conv_du): Sequential(
                (0): Conv2d(64, 4, kernel_size=(1, 1), stride=(1, 1))
                (1): ReLU(inplace=True)
                (2): Conv2d(4, 64, kernel_size=(1, 1), stride=(1, 1))
                (3): Sigmoid()
              )
            )
          )
        )
        (17): RCAB(
          (body): Sequential(
            (0): Conv2d(64, 64, kernel_size=(3, 3), stride=(1, 1), padding=(1, 1))
            (1): ReLU(inplace=True)
            (2): Conv2d(64, 64, kernel_size=(3, 3), stride=(1, 1), padding=(1, 1))
            (3): CALayer(
              (avg_pool): AdaptiveAvgPool2d(output_size=1)
              (conv_du): Sequential(
                (0): Conv2d(64, 4, kernel_size=(1, 1), stride=(1, 1))
                (1): ReLU(inplace=True)
                (2): Conv2d(4, 64, kernel_size=(1, 1), stride=(1, 1))
                (3): Sigmoid()
              )
            )
          )
        )
        (18): RCAB(
          (body): Sequential(
            (0): Conv2d(64, 64, kernel_size=(3, 3), stride=(1, 1), padding=(1, 1))
            (1): ReLU(inplace=True)
            (2): Conv2d(64, 64, kernel_size=(3, 3), stride=(1, 1), padding=(1, 1))
            (3): CALayer(
              (avg_pool): AdaptiveAvgPool2d(output_size=1)
              (conv_du): Sequential(
                (0): Conv2d(64, 4, kernel_size=(1, 1), stride=(1, 1))
                (1): ReLU(inplace=True)
                (2): Conv2d(4, 64, kernel_size=(1, 1), stride=(1, 1))
                (3): Sigmoid()
              )
            )
          )
        )
        (19): RCAB(
          (body): Sequential(
            (0): Conv2d(64, 64, kernel_size=(3, 3), stride=(1, 1), padding=(1, 1))
            (1): ReLU(inplace=True)
            (2): Conv2d(64, 64, kernel_size=(3, 3), stride=(1, 1), padding=(1, 1))
            (3): CALayer(
              (avg_pool): AdaptiveAvgPool2d(output_size=1)
              (conv_du): Sequential(
                (0): Conv2d(64, 4, kernel_size=(1, 1), stride=(1, 1))
                (1): ReLU(inplace=True)
                (2): Conv2d(4, 64, kernel_size=(1, 1), stride=(1, 1))
                (3): Sigmoid()
              )
            )
          )
        )
        (20): RCAB(
          (body): Sequential(
            (0): Conv2d(64, 64, kernel_size=(3, 3), stride=(1, 1), padding=(1, 1))
            (1): ReLU(inplace=True)
            (2): Conv2d(64, 64, kernel_size=(3, 3), stride=(1, 1), padding=(1, 1))
            (3): CALayer(
              (avg_pool): AdaptiveAvgPool2d(output_size=1)
              (conv_du): Sequential(
                (0): Conv2d(64, 4, kernel_size=(1, 1), stride=(1, 1))
                (1): ReLU(inplace=True)
                (2): Conv2d(4, 64, kernel_size=(1, 1), stride=(1, 1))
                (3): Sigmoid()
              )
            )
          )
        )
        (21): RCAB(
          (body): Sequential(
            (0): Conv2d(64, 64, kernel_size=(3, 3), stride=(1, 1), padding=(1, 1))
            (1): ReLU(inplace=True)
            (2): Conv2d(64, 64, kernel_size=(3, 3), stride=(1, 1), padding=(1, 1))
            (3): CALayer(
              (avg_pool): AdaptiveAvgPool2d(output_size=1)
              (conv_du): Sequential(
                (0): Conv2d(64, 4, kernel_size=(1, 1), stride=(1, 1))
                (1): ReLU(inplace=True)
                (2): Conv2d(4, 64, kernel_size=(1, 1), stride=(1, 1))
                (3): Sigmoid()
              )
            )
          )
        )
        (22): RCAB(
          (body): Sequential(
            (0): Conv2d(64, 64, kernel_size=(3, 3), stride=(1, 1), padding=(1, 1))
            (1): ReLU(inplace=True)
            (2): Conv2d(64, 64, kernel_size=(3, 3), stride=(1, 1), padding=(1, 1))
            (3): CALayer(
              (avg_pool): AdaptiveAvgPool2d(output_size=1)
              (conv_du): Sequential(
                (0): Conv2d(64, 4, kernel_size=(1, 1), stride=(1, 1))
                (1): ReLU(inplace=True)
                (2): Conv2d(4, 64, kernel_size=(1, 1), stride=(1, 1))
                (3): Sigmoid()
              )
            )
          )
        )
        (23): RCAB(
          (body): Sequential(
            (0): Conv2d(64, 64, kernel_size=(3, 3), stride=(1, 1), padding=(1, 1))
            (1): ReLU(inplace=True)
            (2): Conv2d(64, 64, kernel_size=(3, 3), stride=(1, 1), padding=(1, 1))
            (3): CALayer(
              (avg_pool): AdaptiveAvgPool2d(output_size=1)
              (conv_du): Sequential(
                (0): Conv2d(64, 4, kernel_size=(1, 1), stride=(1, 1))
                (1): ReLU(inplace=True)
                (2): Conv2d(4, 64, kernel_size=(1, 1), stride=(1, 1))
                (3): Sigmoid()
              )
            )
          )
        )
        (24): RCAB(
          (body): Sequential(
            (0): Conv2d(64, 64, kernel_size=(3, 3), stride=(1, 1), padding=(1, 1))
            (1): ReLU(inplace=True)
            (2): Conv2d(64, 64, kernel_size=(3, 3), stride=(1, 1), padding=(1, 1))
            (3): CALayer(
              (avg_pool): AdaptiveAvgPool2d(output_size=1)
              (conv_du): Sequential(
                (0): Conv2d(64, 4, kernel_size=(1, 1), stride=(1, 1))
                (1): ReLU(inplace=True)
                (2): Conv2d(4, 64, kernel_size=(1, 1), stride=(1, 1))
                (3): Sigmoid()
              )
            )
          )
        )
        (25): RCAB(
          (body): Sequential(
            (0): Conv2d(64, 64, kernel_size=(3, 3), stride=(1, 1), padding=(1, 1))
            (1): ReLU(inplace=True)
            (2): Conv2d(64, 64, kernel_size=(3, 3), stride=(1, 1), padding=(1, 1))
            (3): CALayer(
              (avg_pool): AdaptiveAvgPool2d(output_size=1)
              (conv_du): Sequential(
                (0): Conv2d(64, 4, kernel_size=(1, 1), stride=(1, 1))
                (1): ReLU(inplace=True)
                (2): Conv2d(4, 64, kernel_size=(1, 1), stride=(1, 1))
                (3): Sigmoid()
              )
            )
          )
        )
        (26): RCAB(
          (body): Sequential(
            (0): Conv2d(64, 64, kernel_size=(3, 3), stride=(1, 1), padding=(1, 1))
            (1): ReLU(inplace=True)
            (2): Conv2d(64, 64, kernel_size=(3, 3), stride=(1, 1), padding=(1, 1))
            (3): CALayer(
              (avg_pool): AdaptiveAvgPool2d(output_size=1)
              (conv_du): Sequential(
                (0): Conv2d(64, 4, kernel_size=(1, 1), stride=(1, 1))
                (1): ReLU(inplace=True)
                (2): Conv2d(4, 64, kernel_size=(1, 1), stride=(1, 1))
                (3): Sigmoid()
              )
            )
          )
        )
        (27): RCAB(
          (body): Sequential(
            (0): Conv2d(64, 64, kernel_size=(3, 3), stride=(1, 1), padding=(1, 1))
            (1): ReLU(inplace=True)
            (2): Conv2d(64, 64, kernel_size=(3, 3), stride=(1, 1), padding=(1, 1))
            (3): CALayer(
              (avg_pool): AdaptiveAvgPool2d(output_size=1)
              (conv_du): Sequential(
                (0): Conv2d(64, 4, kernel_size=(1, 1), stride=(1, 1))
                (1): ReLU(inplace=True)
                (2): Conv2d(4, 64, kernel_size=(1, 1), stride=(1, 1))
                (3): Sigmoid()
              )
            )
          )
        )
        (28): RCAB(
          (body): Sequential(
            (0): Conv2d(64, 64, kernel_size=(3, 3), stride=(1, 1), padding=(1, 1))
            (1): ReLU(inplace=True)
            (2): Conv2d(64, 64, kernel_size=(3, 3), stride=(1, 1), padding=(1, 1))
            (3): CALayer(
              (avg_pool): AdaptiveAvgPool2d(output_size=1)
              (conv_du): Sequential(
                (0): Conv2d(64, 4, kernel_size=(1, 1), stride=(1, 1))
                (1): ReLU(inplace=True)
                (2): Conv2d(4, 64, kernel_size=(1, 1), stride=(1, 1))
                (3): Sigmoid()
              )
            )
          )
        )
        (29): RCAB(
          (body): Sequential(
            (0): Conv2d(64, 64, kernel_size=(3, 3), stride=(1, 1), padding=(1, 1))
            (1): ReLU(inplace=True)
            (2): Conv2d(64, 64, kernel_size=(3, 3), stride=(1, 1), padding=(1, 1))
            (3): CALayer(
              (avg_pool): AdaptiveAvgPool2d(output_size=1)
              (conv_du): Sequential(
                (0): Conv2d(64, 4, kernel_size=(1, 1), stride=(1, 1))
                (1): ReLU(inplace=True)
                (2): Conv2d(4, 64, kernel_size=(1, 1), stride=(1, 1))
                (3): Sigmoid()
              )
            )
          )
        )
        (30): Upsampler(
          (0): Conv2d(64, 256, kernel_size=(3, 3), stride=(1, 1), padding=(1, 1))
          (1): PixelShuffle(upscale_factor=2)
        )
        (31): Conv2d(64, 16, kernel_size=(1, 1), stride=(1, 1))
      )
      (2): Sequential(
        (0): RCAB(
          (body): Sequential(
            (0): Conv2d(32, 32, kernel_size=(3, 3), stride=(1, 1), padding=(1, 1))
            (1): ReLU(inplace=True)
            (2): Conv2d(32, 32, kernel_size=(3, 3), stride=(1, 1), padding=(1, 1))
            (3): CALayer(
              (avg_pool): AdaptiveAvgPool2d(output_size=1)
              (conv_du): Sequential(
                (0): Conv2d(32, 2, kernel_size=(1, 1), stride=(1, 1))
                (1): ReLU(inplace=True)
                (2): Conv2d(2, 32, kernel_size=(1, 1), stride=(1, 1))
                (3): Sigmoid()
              )
            )
          )
        )
        (1): RCAB(
          (body): Sequential(
            (0): Conv2d(32, 32, kernel_size=(3, 3), stride=(1, 1), padding=(1, 1))
            (1): ReLU(inplace=True)
            (2): Conv2d(32, 32, kernel_size=(3, 3), stride=(1, 1), padding=(1, 1))
            (3): CALayer(
              (avg_pool): AdaptiveAvgPool2d(output_size=1)
              (conv_du): Sequential(
                (0): Conv2d(32, 2, kernel_size=(1, 1), stride=(1, 1))
                (1): ReLU(inplace=True)
                (2): Conv2d(2, 32, kernel_size=(1, 1), stride=(1, 1))
                (3): Sigmoid()
              )
            )
          )
        )
        (2): RCAB(
          (body): Sequential(
            (0): Conv2d(32, 32, kernel_size=(3, 3), stride=(1, 1), padding=(1, 1))
            (1): ReLU(inplace=True)
            (2): Conv2d(32, 32, kernel_size=(3, 3), stride=(1, 1), padding=(1, 1))
            (3): CALayer(
              (avg_pool): AdaptiveAvgPool2d(output_size=1)
              (conv_du): Sequential(
                (0): Conv2d(32, 2, kernel_size=(1, 1), stride=(1, 1))
                (1): ReLU(inplace=True)
                (2): Conv2d(2, 32, kernel_size=(1, 1), stride=(1, 1))
                (3): Sigmoid()
              )
            )
          )
        )
        (3): RCAB(
          (body): Sequential(
            (0): Conv2d(32, 32, kernel_size=(3, 3), stride=(1, 1), padding=(1, 1))
            (1): ReLU(inplace=True)
            (2): Conv2d(32, 32, kernel_size=(3, 3), stride=(1, 1), padding=(1, 1))
            (3): CALayer(
              (avg_pool): AdaptiveAvgPool2d(output_size=1)
              (conv_du): Sequential(
                (0): Conv2d(32, 2, kernel_size=(1, 1), stride=(1, 1))
                (1): ReLU(inplace=True)
                (2): Conv2d(2, 32, kernel_size=(1, 1), stride=(1, 1))
                (3): Sigmoid()
              )
            )
          )
        )
        (4): RCAB(
          (body): Sequential(
            (0): Conv2d(32, 32, kernel_size=(3, 3), stride=(1, 1), padding=(1, 1))
            (1): ReLU(inplace=True)
            (2): Conv2d(32, 32, kernel_size=(3, 3), stride=(1, 1), padding=(1, 1))
            (3): CALayer(
              (avg_pool): AdaptiveAvgPool2d(output_size=1)
              (conv_du): Sequential(
                (0): Conv2d(32, 2, kernel_size=(1, 1), stride=(1, 1))
                (1): ReLU(inplace=True)
                (2): Conv2d(2, 32, kernel_size=(1, 1), stride=(1, 1))
                (3): Sigmoid()
              )
            )
          )
        )
        (5): RCAB(
          (body): Sequential(
            (0): Conv2d(32, 32, kernel_size=(3, 3), stride=(1, 1), padding=(1, 1))
            (1): ReLU(inplace=True)
            (2): Conv2d(32, 32, kernel_size=(3, 3), stride=(1, 1), padding=(1, 1))
            (3): CALayer(
              (avg_pool): AdaptiveAvgPool2d(output_size=1)
              (conv_du): Sequential(
                (0): Conv2d(32, 2, kernel_size=(1, 1), stride=(1, 1))
                (1): ReLU(inplace=True)
                (2): Conv2d(2, 32, kernel_size=(1, 1), stride=(1, 1))
                (3): Sigmoid()
              )
            )
          )
        )
        (6): RCAB(
          (body): Sequential(
            (0): Conv2d(32, 32, kernel_size=(3, 3), stride=(1, 1), padding=(1, 1))
            (1): ReLU(inplace=True)
            (2): Conv2d(32, 32, kernel_size=(3, 3), stride=(1, 1), padding=(1, 1))
            (3): CALayer(
              (avg_pool): AdaptiveAvgPool2d(output_size=1)
              (conv_du): Sequential(
                (0): Conv2d(32, 2, kernel_size=(1, 1), stride=(1, 1))
                (1): ReLU(inplace=True)
                (2): Conv2d(2, 32, kernel_size=(1, 1), stride=(1, 1))
                (3): Sigmoid()
              )
            )
          )
        )
        (7): RCAB(
          (body): Sequential(
            (0): Conv2d(32, 32, kernel_size=(3, 3), stride=(1, 1), padding=(1, 1))
            (1): ReLU(inplace=True)
            (2): Conv2d(32, 32, kernel_size=(3, 3), stride=(1, 1), padding=(1, 1))
            (3): CALayer(
              (avg_pool): AdaptiveAvgPool2d(output_size=1)
              (conv_du): Sequential(
                (0): Conv2d(32, 2, kernel_size=(1, 1), stride=(1, 1))
                (1): ReLU(inplace=True)
                (2): Conv2d(2, 32, kernel_size=(1, 1), stride=(1, 1))
                (3): Sigmoid()
              )
            )
          )
        )
        (8): RCAB(
          (body): Sequential(
            (0): Conv2d(32, 32, kernel_size=(3, 3), stride=(1, 1), padding=(1, 1))
            (1): ReLU(inplace=True)
            (2): Conv2d(32, 32, kernel_size=(3, 3), stride=(1, 1), padding=(1, 1))
            (3): CALayer(
              (avg_pool): AdaptiveAvgPool2d(output_size=1)
              (conv_du): Sequential(
                (0): Conv2d(32, 2, kernel_size=(1, 1), stride=(1, 1))
                (1): ReLU(inplace=True)
                (2): Conv2d(2, 32, kernel_size=(1, 1), stride=(1, 1))
                (3): Sigmoid()
              )
            )
          )
        )
        (9): RCAB(
          (body): Sequential(
            (0): Conv2d(32, 32, kernel_size=(3, 3), stride=(1, 1), padding=(1, 1))
            (1): ReLU(inplace=True)
            (2): Conv2d(32, 32, kernel_size=(3, 3), stride=(1, 1), padding=(1, 1))
            (3): CALayer(
              (avg_pool): AdaptiveAvgPool2d(output_size=1)
              (conv_du): Sequential(
                (0): Conv2d(32, 2, kernel_size=(1, 1), stride=(1, 1))
                (1): ReLU(inplace=True)
                (2): Conv2d(2, 32, kernel_size=(1, 1), stride=(1, 1))
                (3): Sigmoid()
              )
            )
          )
        )
        (10): RCAB(
          (body): Sequential(
            (0): Conv2d(32, 32, kernel_size=(3, 3), stride=(1, 1), padding=(1, 1))
            (1): ReLU(inplace=True)
            (2): Conv2d(32, 32, kernel_size=(3, 3), stride=(1, 1), padding=(1, 1))
            (3): CALayer(
              (avg_pool): AdaptiveAvgPool2d(output_size=1)
              (conv_du): Sequential(
                (0): Conv2d(32, 2, kernel_size=(1, 1), stride=(1, 1))
                (1): ReLU(inplace=True)
                (2): Conv2d(2, 32, kernel_size=(1, 1), stride=(1, 1))
                (3): Sigmoid()
              )
            )
          )
        )
        (11): RCAB(
          (body): Sequential(
            (0): Conv2d(32, 32, kernel_size=(3, 3), stride=(1, 1), padding=(1, 1))
            (1): ReLU(inplace=True)
            (2): Conv2d(32, 32, kernel_size=(3, 3), stride=(1, 1), padding=(1, 1))
            (3): CALayer(
              (avg_pool): AdaptiveAvgPool2d(output_size=1)
              (conv_du): Sequential(
                (0): Conv2d(32, 2, kernel_size=(1, 1), stride=(1, 1))
                (1): ReLU(inplace=True)
                (2): Conv2d(2, 32, kernel_size=(1, 1), stride=(1, 1))
                (3): Sigmoid()
              )
            )
          )
        )
        (12): RCAB(
          (body): Sequential(
            (0): Conv2d(32, 32, kernel_size=(3, 3), stride=(1, 1), padding=(1, 1))
            (1): ReLU(inplace=True)
            (2): Conv2d(32, 32, kernel_size=(3, 3), stride=(1, 1), padding=(1, 1))
            (3): CALayer(
              (avg_pool): AdaptiveAvgPool2d(output_size=1)
              (conv_du): Sequential(
                (0): Conv2d(32, 2, kernel_size=(1, 1), stride=(1, 1))
                (1): ReLU(inplace=True)
                (2): Conv2d(2, 32, kernel_size=(1, 1), stride=(1, 1))
                (3): Sigmoid()
              )
            )
          )
        )
        (13): RCAB(
          (body): Sequential(
            (0): Conv2d(32, 32, kernel_size=(3, 3), stride=(1, 1), padding=(1, 1))
            (1): ReLU(inplace=True)
            (2): Conv2d(32, 32, kernel_size=(3, 3), stride=(1, 1), padding=(1, 1))
            (3): CALayer(
              (avg_pool): AdaptiveAvgPool2d(output_size=1)
              (conv_du): Sequential(
                (0): Conv2d(32, 2, kernel_size=(1, 1), stride=(1, 1))
                (1): ReLU(inplace=True)
                (2): Conv2d(2, 32, kernel_size=(1, 1), stride=(1, 1))
                (3): Sigmoid()
              )
            )
          )
        )
        (14): RCAB(
          (body): Sequential(
            (0): Conv2d(32, 32, kernel_size=(3, 3), stride=(1, 1), padding=(1, 1))
            (1): ReLU(inplace=True)
            (2): Conv2d(32, 32, kernel_size=(3, 3), stride=(1, 1), padding=(1, 1))
            (3): CALayer(
              (avg_pool): AdaptiveAvgPool2d(output_size=1)
              (conv_du): Sequential(
                (0): Conv2d(32, 2, kernel_size=(1, 1), stride=(1, 1))
                (1): ReLU(inplace=True)
                (2): Conv2d(2, 32, kernel_size=(1, 1), stride=(1, 1))
                (3): Sigmoid()
              )
            )
          )
        )
        (15): RCAB(
          (body): Sequential(
            (0): Conv2d(32, 32, kernel_size=(3, 3), stride=(1, 1), padding=(1, 1))
            (1): ReLU(inplace=True)
            (2): Conv2d(32, 32, kernel_size=(3, 3), stride=(1, 1), padding=(1, 1))
            (3): CALayer(
              (avg_pool): AdaptiveAvgPool2d(output_size=1)
              (conv_du): Sequential(
                (0): Conv2d(32, 2, kernel_size=(1, 1), stride=(1, 1))
                (1): ReLU(inplace=True)
                (2): Conv2d(2, 32, kernel_size=(1, 1), stride=(1, 1))
                (3): Sigmoid()
              )
            )
          )
        )
        (16): RCAB(
          (body): Sequential(
            (0): Conv2d(32, 32, kernel_size=(3, 3), stride=(1, 1), padding=(1, 1))
            (1): ReLU(inplace=True)
            (2): Conv2d(32, 32, kernel_size=(3, 3), stride=(1, 1), padding=(1, 1))
            (3): CALayer(
              (avg_pool): AdaptiveAvgPool2d(output_size=1)
              (conv_du): Sequential(
                (0): Conv2d(32, 2, kernel_size=(1, 1), stride=(1, 1))
                (1): ReLU(inplace=True)
                (2): Conv2d(2, 32, kernel_size=(1, 1), stride=(1, 1))
                (3): Sigmoid()
              )
            )
          )
        )
        (17): RCAB(
          (body): Sequential(
            (0): Conv2d(32, 32, kernel_size=(3, 3), stride=(1, 1), padding=(1, 1))
            (1): ReLU(inplace=True)
            (2): Conv2d(32, 32, kernel_size=(3, 3), stride=(1, 1), padding=(1, 1))
            (3): CALayer(
              (avg_pool): AdaptiveAvgPool2d(output_size=1)
              (conv_du): Sequential(
                (0): Conv2d(32, 2, kernel_size=(1, 1), stride=(1, 1))
                (1): ReLU(inplace=True)
                (2): Conv2d(2, 32, kernel_size=(1, 1), stride=(1, 1))
                (3): Sigmoid()
              )
            )
          )
        )
        (18): RCAB(
          (body): Sequential(
            (0): Conv2d(32, 32, kernel_size=(3, 3), stride=(1, 1), padding=(1, 1))
            (1): ReLU(inplace=True)
            (2): Conv2d(32, 32, kernel_size=(3, 3), stride=(1, 1), padding=(1, 1))
            (3): CALayer(
              (avg_pool): AdaptiveAvgPool2d(output_size=1)
              (conv_du): Sequential(
                (0): Conv2d(32, 2, kernel_size=(1, 1), stride=(1, 1))
                (1): ReLU(inplace=True)
                (2): Conv2d(2, 32, kernel_size=(1, 1), stride=(1, 1))
                (3): Sigmoid()
              )
            )
          )
        )
        (19): RCAB(
          (body): Sequential(
            (0): Conv2d(32, 32, kernel_size=(3, 3), stride=(1, 1), padding=(1, 1))
            (1): ReLU(inplace=True)
            (2): Conv2d(32, 32, kernel_size=(3, 3), stride=(1, 1), padding=(1, 1))
            (3): CALayer(
              (avg_pool): AdaptiveAvgPool2d(output_size=1)
              (conv_du): Sequential(
                (0): Conv2d(32, 2, kernel_size=(1, 1), stride=(1, 1))
                (1): ReLU(inplace=True)
                (2): Conv2d(2, 32, kernel_size=(1, 1), stride=(1, 1))
                (3): Sigmoid()
              )
            )
          )
        )
        (20): RCAB(
          (body): Sequential(
            (0): Conv2d(32, 32, kernel_size=(3, 3), stride=(1, 1), padding=(1, 1))
            (1): ReLU(inplace=True)
            (2): Conv2d(32, 32, kernel_size=(3, 3), stride=(1, 1), padding=(1, 1))
            (3): CALayer(
              (avg_pool): AdaptiveAvgPool2d(output_size=1)
              (conv_du): Sequential(
                (0): Conv2d(32, 2, kernel_size=(1, 1), stride=(1, 1))
                (1): ReLU(inplace=True)
                (2): Conv2d(2, 32, kernel_size=(1, 1), stride=(1, 1))
                (3): Sigmoid()
              )
            )
          )
        )
        (21): RCAB(
          (body): Sequential(
            (0): Conv2d(32, 32, kernel_size=(3, 3), stride=(1, 1), padding=(1, 1))
            (1): ReLU(inplace=True)
            (2): Conv2d(32, 32, kernel_size=(3, 3), stride=(1, 1), padding=(1, 1))
            (3): CALayer(
              (avg_pool): AdaptiveAvgPool2d(output_size=1)
              (conv_du): Sequential(
                (0): Conv2d(32, 2, kernel_size=(1, 1), stride=(1, 1))
                (1): ReLU(inplace=True)
                (2): Conv2d(2, 32, kernel_size=(1, 1), stride=(1, 1))
                (3): Sigmoid()
              )
            )
          )
        )
        (22): RCAB(
          (body): Sequential(
            (0): Conv2d(32, 32, kernel_size=(3, 3), stride=(1, 1), padding=(1, 1))
            (1): ReLU(inplace=True)
            (2): Conv2d(32, 32, kernel_size=(3, 3), stride=(1, 1), padding=(1, 1))
            (3): CALayer(
              (avg_pool): AdaptiveAvgPool2d(output_size=1)
              (conv_du): Sequential(
                (0): Conv2d(32, 2, kernel_size=(1, 1), stride=(1, 1))
                (1): ReLU(inplace=True)
                (2): Conv2d(2, 32, kernel_size=(1, 1), stride=(1, 1))
                (3): Sigmoid()
              )
            )
          )
        )
        (23): RCAB(
          (body): Sequential(
            (0): Conv2d(32, 32, kernel_size=(3, 3), stride=(1, 1), padding=(1, 1))
            (1): ReLU(inplace=True)
            (2): Conv2d(32, 32, kernel_size=(3, 3), stride=(1, 1), padding=(1, 1))
            (3): CALayer(
              (avg_pool): AdaptiveAvgPool2d(output_size=1)
              (conv_du): Sequential(
                (0): Conv2d(32, 2, kernel_size=(1, 1), stride=(1, 1))
                (1): ReLU(inplace=True)
                (2): Conv2d(2, 32, kernel_size=(1, 1), stride=(1, 1))
                (3): Sigmoid()
              )
            )
          )
        )
        (24): RCAB(
          (body): Sequential(
            (0): Conv2d(32, 32, kernel_size=(3, 3), stride=(1, 1), padding=(1, 1))
            (1): ReLU(inplace=True)
            (2): Conv2d(32, 32, kernel_size=(3, 3), stride=(1, 1), padding=(1, 1))
            (3): CALayer(
              (avg_pool): AdaptiveAvgPool2d(output_size=1)
              (conv_du): Sequential(
                (0): Conv2d(32, 2, kernel_size=(1, 1), stride=(1, 1))
                (1): ReLU(inplace=True)
                (2): Conv2d(2, 32, kernel_size=(1, 1), stride=(1, 1))
                (3): Sigmoid()
              )
            )
          )
        )
        (25): RCAB(
          (body): Sequential(
            (0): Conv2d(32, 32, kernel_size=(3, 3), stride=(1, 1), padding=(1, 1))
            (1): ReLU(inplace=True)
            (2): Conv2d(32, 32, kernel_size=(3, 3), stride=(1, 1), padding=(1, 1))
            (3): CALayer(
              (avg_pool): AdaptiveAvgPool2d(output_size=1)
              (conv_du): Sequential(
                (0): Conv2d(32, 2, kernel_size=(1, 1), stride=(1, 1))
                (1): ReLU(inplace=True)
                (2): Conv2d(2, 32, kernel_size=(1, 1), stride=(1, 1))
                (3): Sigmoid()
              )
            )
          )
        )
        (26): RCAB(
          (body): Sequential(
            (0): Conv2d(32, 32, kernel_size=(3, 3), stride=(1, 1), padding=(1, 1))
            (1): ReLU(inplace=True)
            (2): Conv2d(32, 32, kernel_size=(3, 3), stride=(1, 1), padding=(1, 1))
            (3): CALayer(
              (avg_pool): AdaptiveAvgPool2d(output_size=1)
              (conv_du): Sequential(
                (0): Conv2d(32, 2, kernel_size=(1, 1), stride=(1, 1))
                (1): ReLU(inplace=True)
                (2): Conv2d(2, 32, kernel_size=(1, 1), stride=(1, 1))
                (3): Sigmoid()
              )
            )
          )
        )
        (27): RCAB(
          (body): Sequential(
            (0): Conv2d(32, 32, kernel_size=(3, 3), stride=(1, 1), padding=(1, 1))
            (1): ReLU(inplace=True)
            (2): Conv2d(32, 32, kernel_size=(3, 3), stride=(1, 1), padding=(1, 1))
            (3): CALayer(
              (avg_pool): AdaptiveAvgPool2d(output_size=1)
              (conv_du): Sequential(
                (0): Conv2d(32, 2, kernel_size=(1, 1), stride=(1, 1))
                (1): ReLU(inplace=True)
                (2): Conv2d(2, 32, kernel_size=(1, 1), stride=(1, 1))
                (3): Sigmoid()
              )
            )
          )
        )
        (28): RCAB(
          (body): Sequential(
            (0): Conv2d(32, 32, kernel_size=(3, 3), stride=(1, 1), padding=(1, 1))
            (1): ReLU(inplace=True)
            (2): Conv2d(32, 32, kernel_size=(3, 3), stride=(1, 1), padding=(1, 1))
            (3): CALayer(
              (avg_pool): AdaptiveAvgPool2d(output_size=1)
              (conv_du): Sequential(
                (0): Conv2d(32, 2, kernel_size=(1, 1), stride=(1, 1))
                (1): ReLU(inplace=True)
                (2): Conv2d(2, 32, kernel_size=(1, 1), stride=(1, 1))
                (3): Sigmoid()
              )
            )
          )
        )
        (29): RCAB(
          (body): Sequential(
            (0): Conv2d(32, 32, kernel_size=(3, 3), stride=(1, 1), padding=(1, 1))
            (1): ReLU(inplace=True)
            (2): Conv2d(32, 32, kernel_size=(3, 3), stride=(1, 1), padding=(1, 1))
            (3): CALayer(
              (avg_pool): AdaptiveAvgPool2d(output_size=1)
              (conv_du): Sequential(
                (0): Conv2d(32, 2, kernel_size=(1, 1), stride=(1, 1))
                (1): ReLU(inplace=True)
                (2): Conv2d(2, 32, kernel_size=(1, 1), stride=(1, 1))
                (3): Sigmoid()
              )
            )
          )
        )
        (30): Upsampler(
          (0): Conv2d(32, 128, kernel_size=(3, 3), stride=(1, 1), padding=(1, 1))
          (1): PixelShuffle(upscale_factor=2)
        )
        (31): Conv2d(32, 8, kernel_size=(1, 1), stride=(1, 1))
      )
    )
    (tail): ModuleList(
      (0): Conv2d(64, 3, kernel_size=(3, 3), stride=(1, 1), padding=(1, 1))
      (1): Conv2d(64, 3, kernel_size=(3, 3), stride=(1, 1), padding=(1, 1))
      (2): Conv2d(32, 3, kernel_size=(3, 3), stride=(1, 1), padding=(1, 1))
      (3): Conv2d(16, 3, kernel_size=(3, 3), stride=(1, 1), padding=(1, 1))
    )
    (add_mean): MeanShift(3, 3, kernel_size=(1, 1), stride=(1, 1))
  )
)
[DataParallel(
  (module): DownBlock(
    (dual_module): Sequential(
      (0): Sequential(
        (0): Conv2d(3, 8, kernel_size=(3, 3), stride=(2, 2), padding=(1, 1), bias=False)
        (1): LeakyReLU(negative_slope=0.2, inplace=True)
      )
      (1): Conv2d(8, 3, kernel_size=(3, 3), stride=(1, 1), padding=(1, 1), bias=False)
    )
  )
), DataParallel(
  (module): DownBlock(
    (dual_module): Sequential(
      (0): Sequential(
        (0): Conv2d(3, 8, kernel_size=(3, 3), stride=(2, 2), padding=(1, 1), bias=False)
        (1): LeakyReLU(negative_slope=0.2, inplace=True)
      )
      (1): Conv2d(8, 3, kernel_size=(3, 3), stride=(1, 1), padding=(1, 1), bias=False)
    )
  )
), DataParallel(
  (module): DownBlock(
    (dual_module): Sequential(
      (0): Sequential(
        (0): Conv2d(3, 8, kernel_size=(3, 3), stride=(2, 2), padding=(1, 1), bias=False)
        (1): LeakyReLU(negative_slope=0.2, inplace=True)
      )
      (1): Conv2d(8, 3, kernel_size=(3, 3), stride=(1, 1), padding=(1, 1), bias=False)
    )
  )
)]
The number of parameters is 5.40M
[Epoch 1]	Learning rate: 1.00e-4
DataParallel(
  (module): DRN(
    (upsample): Upsample(scale_factor=8.0, mode=bicubic)
    (sub_mean): MeanShift(3, 3, kernel_size=(1, 1), stride=(1, 1))
    (head): Conv2d(3, 8, kernel_size=(3, 3), stride=(1, 1), padding=(1, 1))
    (down): ModuleList(
      (0): DownBlock(
        (dual_module): Sequential(
          (0): Sequential(
            (0): Conv2d(8, 8, kernel_size=(3, 3), stride=(2, 2), padding=(1, 1), bias=False)
            (1): LeakyReLU(negative_slope=0.2, inplace=True)
          )
          (1): Conv2d(8, 16, kernel_size=(3, 3), stride=(1, 1), padding=(1, 1), bias=False)
        )
      )
      (1): DownBlock(
        (dual_module): Sequential(
          (0): Sequential(
            (0): Conv2d(16, 16, kernel_size=(3, 3), stride=(2, 2), padding=(1, 1), bias=False)
            (1): LeakyReLU(negative_slope=0.2, inplace=True)
          )
          (1): Conv2d(16, 32, kernel_size=(3, 3), stride=(1, 1), padding=(1, 1), bias=False)
        )
      )
      (2): DownBlock(
        (dual_module): Sequential(
          (0): Sequential(
            (0): Conv2d(32, 32, kernel_size=(3, 3), stride=(2, 2), padding=(1, 1), bias=False)
            (1): LeakyReLU(negative_slope=0.2, inplace=True)
          )
          (1): Conv2d(32, 64, kernel_size=(3, 3), stride=(1, 1), padding=(1, 1), bias=False)
        )
      )
    )
    (up_blocks): ModuleList(
      (0): Sequential(
        (0): RCAB(
          (body): Sequential(
            (0): Conv2d(64, 64, kernel_size=(3, 3), stride=(1, 1), padding=(1, 1))
            (1): ReLU(inplace=True)
            (2): Conv2d(64, 64, kernel_size=(3, 3), stride=(1, 1), padding=(1, 1))
            (3): CALayer(
              (avg_pool): AdaptiveAvgPool2d(output_size=1)
              (conv_du): Sequential(
                (0): Conv2d(64, 4, kernel_size=(1, 1), stride=(1, 1))
                (1): ReLU(inplace=True)
                (2): Conv2d(4, 64, kernel_size=(1, 1), stride=(1, 1))
                (3): Sigmoid()
              )
            )
          )
        )
        (1): RCAB(
          (body): Sequential(
            (0): Conv2d(64, 64, kernel_size=(3, 3), stride=(1, 1), padding=(1, 1))
            (1): ReLU(inplace=True)
            (2): Conv2d(64, 64, kernel_size=(3, 3), stride=(1, 1), padding=(1, 1))
            (3): CALayer(
              (avg_pool): AdaptiveAvgPool2d(output_size=1)
              (conv_du): Sequential(
                (0): Conv2d(64, 4, kernel_size=(1, 1), stride=(1, 1))
                (1): ReLU(inplace=True)
                (2): Conv2d(4, 64, kernel_size=(1, 1), stride=(1, 1))
                (3): Sigmoid()
              )
            )
          )
        )
        (2): RCAB(
          (body): Sequential(
            (0): Conv2d(64, 64, kernel_size=(3, 3), stride=(1, 1), padding=(1, 1))
            (1): ReLU(inplace=True)
            (2): Conv2d(64, 64, kernel_size=(3, 3), stride=(1, 1), padding=(1, 1))
            (3): CALayer(
              (avg_pool): AdaptiveAvgPool2d(output_size=1)
              (conv_du): Sequential(
                (0): Conv2d(64, 4, kernel_size=(1, 1), stride=(1, 1))
                (1): ReLU(inplace=True)
                (2): Conv2d(4, 64, kernel_size=(1, 1), stride=(1, 1))
                (3): Sigmoid()
              )
            )
          )
        )
        (3): RCAB(
          (body): Sequential(
            (0): Conv2d(64, 64, kernel_size=(3, 3), stride=(1, 1), padding=(1, 1))
            (1): ReLU(inplace=True)
            (2): Conv2d(64, 64, kernel_size=(3, 3), stride=(1, 1), padding=(1, 1))
            (3): CALayer(
              (avg_pool): AdaptiveAvgPool2d(output_size=1)
              (conv_du): Sequential(
                (0): Conv2d(64, 4, kernel_size=(1, 1), stride=(1, 1))
                (1): ReLU(inplace=True)
                (2): Conv2d(4, 64, kernel_size=(1, 1), stride=(1, 1))
                (3): Sigmoid()
              )
            )
          )
        )
        (4): RCAB(
          (body): Sequential(
            (0): Conv2d(64, 64, kernel_size=(3, 3), stride=(1, 1), padding=(1, 1))
            (1): ReLU(inplace=True)
            (2): Conv2d(64, 64, kernel_size=(3, 3), stride=(1, 1), padding=(1, 1))
            (3): CALayer(
              (avg_pool): AdaptiveAvgPool2d(output_size=1)
              (conv_du): Sequential(
                (0): Conv2d(64, 4, kernel_size=(1, 1), stride=(1, 1))
                (1): ReLU(inplace=True)
                (2): Conv2d(4, 64, kernel_size=(1, 1), stride=(1, 1))
                (3): Sigmoid()
              )
            )
          )
        )
        (5): RCAB(
          (body): Sequential(
            (0): Conv2d(64, 64, kernel_size=(3, 3), stride=(1, 1), padding=(1, 1))
            (1): ReLU(inplace=True)
            (2): Conv2d(64, 64, kernel_size=(3, 3), stride=(1, 1), padding=(1, 1))
            (3): CALayer(
              (avg_pool): AdaptiveAvgPool2d(output_size=1)
              (conv_du): Sequential(
                (0): Conv2d(64, 4, kernel_size=(1, 1), stride=(1, 1))
                (1): ReLU(inplace=True)
                (2): Conv2d(4, 64, kernel_size=(1, 1), stride=(1, 1))
                (3): Sigmoid()
              )
            )
          )
        )
        (6): RCAB(
          (body): Sequential(
            (0): Conv2d(64, 64, kernel_size=(3, 3), stride=(1, 1), padding=(1, 1))
            (1): ReLU(inplace=True)
            (2): Conv2d(64, 64, kernel_size=(3, 3), stride=(1, 1), padding=(1, 1))
            (3): CALayer(
              (avg_pool): AdaptiveAvgPool2d(output_size=1)
              (conv_du): Sequential(
                (0): Conv2d(64, 4, kernel_size=(1, 1), stride=(1, 1))
                (1): ReLU(inplace=True)
                (2): Conv2d(4, 64, kernel_size=(1, 1), stride=(1, 1))
                (3): Sigmoid()
              )
            )
          )
        )
        (7): RCAB(
          (body): Sequential(
            (0): Conv2d(64, 64, kernel_size=(3, 3), stride=(1, 1), padding=(1, 1))
            (1): ReLU(inplace=True)
            (2): Conv2d(64, 64, kernel_size=(3, 3), stride=(1, 1), padding=(1, 1))
            (3): CALayer(
              (avg_pool): AdaptiveAvgPool2d(output_size=1)
              (conv_du): Sequential(
                (0): Conv2d(64, 4, kernel_size=(1, 1), stride=(1, 1))
                (1): ReLU(inplace=True)
                (2): Conv2d(4, 64, kernel_size=(1, 1), stride=(1, 1))
                (3): Sigmoid()
              )
            )
          )
        )
        (8): RCAB(
          (body): Sequential(
            (0): Conv2d(64, 64, kernel_size=(3, 3), stride=(1, 1), padding=(1, 1))
            (1): ReLU(inplace=True)
            (2): Conv2d(64, 64, kernel_size=(3, 3), stride=(1, 1), padding=(1, 1))
            (3): CALayer(
              (avg_pool): AdaptiveAvgPool2d(output_size=1)
              (conv_du): Sequential(
                (0): Conv2d(64, 4, kernel_size=(1, 1), stride=(1, 1))
                (1): ReLU(inplace=True)
                (2): Conv2d(4, 64, kernel_size=(1, 1), stride=(1, 1))
                (3): Sigmoid()
              )
            )
          )
        )
        (9): RCAB(
          (body): Sequential(
            (0): Conv2d(64, 64, kernel_size=(3, 3), stride=(1, 1), padding=(1, 1))
            (1): ReLU(inplace=True)
            (2): Conv2d(64, 64, kernel_size=(3, 3), stride=(1, 1), padding=(1, 1))
            (3): CALayer(
              (avg_pool): AdaptiveAvgPool2d(output_size=1)
              (conv_du): Sequential(
                (0): Conv2d(64, 4, kernel_size=(1, 1), stride=(1, 1))
                (1): ReLU(inplace=True)
                (2): Conv2d(4, 64, kernel_size=(1, 1), stride=(1, 1))
                (3): Sigmoid()
              )
            )
          )
        )
        (10): RCAB(
          (body): Sequential(
            (0): Conv2d(64, 64, kernel_size=(3, 3), stride=(1, 1), padding=(1, 1))
            (1): ReLU(inplace=True)
            (2): Conv2d(64, 64, kernel_size=(3, 3), stride=(1, 1), padding=(1, 1))
            (3): CALayer(
              (avg_pool): AdaptiveAvgPool2d(output_size=1)
              (conv_du): Sequential(
                (0): Conv2d(64, 4, kernel_size=(1, 1), stride=(1, 1))
                (1): ReLU(inplace=True)
                (2): Conv2d(4, 64, kernel_size=(1, 1), stride=(1, 1))
                (3): Sigmoid()
              )
            )
          )
        )
        (11): RCAB(
          (body): Sequential(
            (0): Conv2d(64, 64, kernel_size=(3, 3), stride=(1, 1), padding=(1, 1))
            (1): ReLU(inplace=True)
            (2): Conv2d(64, 64, kernel_size=(3, 3), stride=(1, 1), padding=(1, 1))
            (3): CALayer(
              (avg_pool): AdaptiveAvgPool2d(output_size=1)
              (conv_du): Sequential(
                (0): Conv2d(64, 4, kernel_size=(1, 1), stride=(1, 1))
                (1): ReLU(inplace=True)
                (2): Conv2d(4, 64, kernel_size=(1, 1), stride=(1, 1))
                (3): Sigmoid()
              )
            )
          )
        )
        (12): RCAB(
          (body): Sequential(
            (0): Conv2d(64, 64, kernel_size=(3, 3), stride=(1, 1), padding=(1, 1))
            (1): ReLU(inplace=True)
            (2): Conv2d(64, 64, kernel_size=(3, 3), stride=(1, 1), padding=(1, 1))
            (3): CALayer(
              (avg_pool): AdaptiveAvgPool2d(output_size=1)
              (conv_du): Sequential(
                (0): Conv2d(64, 4, kernel_size=(1, 1), stride=(1, 1))
                (1): ReLU(inplace=True)
                (2): Conv2d(4, 64, kernel_size=(1, 1), stride=(1, 1))
                (3): Sigmoid()
              )
            )
          )
        )
        (13): RCAB(
          (body): Sequential(
            (0): Conv2d(64, 64, kernel_size=(3, 3), stride=(1, 1), padding=(1, 1))
            (1): ReLU(inplace=True)
            (2): Conv2d(64, 64, kernel_size=(3, 3), stride=(1, 1), padding=(1, 1))
            (3): CALayer(
              (avg_pool): AdaptiveAvgPool2d(output_size=1)
              (conv_du): Sequential(
                (0): Conv2d(64, 4, kernel_size=(1, 1), stride=(1, 1))
                (1): ReLU(inplace=True)
                (2): Conv2d(4, 64, kernel_size=(1, 1), stride=(1, 1))
                (3): Sigmoid()
              )
            )
          )
        )
        (14): RCAB(
          (body): Sequential(
            (0): Conv2d(64, 64, kernel_size=(3, 3), stride=(1, 1), padding=(1, 1))
            (1): ReLU(inplace=True)
            (2): Conv2d(64, 64, kernel_size=(3, 3), stride=(1, 1), padding=(1, 1))
            (3): CALayer(
              (avg_pool): AdaptiveAvgPool2d(output_size=1)
              (conv_du): Sequential(
                (0): Conv2d(64, 4, kernel_size=(1, 1), stride=(1, 1))
                (1): ReLU(inplace=True)
                (2): Conv2d(4, 64, kernel_size=(1, 1), stride=(1, 1))
                (3): Sigmoid()
              )
            )
          )
        )
        (15): RCAB(
          (body): Sequential(
            (0): Conv2d(64, 64, kernel_size=(3, 3), stride=(1, 1), padding=(1, 1))
            (1): ReLU(inplace=True)
            (2): Conv2d(64, 64, kernel_size=(3, 3), stride=(1, 1), padding=(1, 1))
            (3): CALayer(
              (avg_pool): AdaptiveAvgPool2d(output_size=1)
              (conv_du): Sequential(
                (0): Conv2d(64, 4, kernel_size=(1, 1), stride=(1, 1))
                (1): ReLU(inplace=True)
                (2): Conv2d(4, 64, kernel_size=(1, 1), stride=(1, 1))
                (3): Sigmoid()
              )
            )
          )
        )
        (16): RCAB(
          (body): Sequential(
            (0): Conv2d(64, 64, kernel_size=(3, 3), stride=(1, 1), padding=(1, 1))
            (1): ReLU(inplace=True)
            (2): Conv2d(64, 64, kernel_size=(3, 3), stride=(1, 1), padding=(1, 1))
            (3): CALayer(
              (avg_pool): AdaptiveAvgPool2d(output_size=1)
              (conv_du): Sequential(
                (0): Conv2d(64, 4, kernel_size=(1, 1), stride=(1, 1))
                (1): ReLU(inplace=True)
                (2): Conv2d(4, 64, kernel_size=(1, 1), stride=(1, 1))
                (3): Sigmoid()
              )
            )
          )
        )
        (17): RCAB(
          (body): Sequential(
            (0): Conv2d(64, 64, kernel_size=(3, 3), stride=(1, 1), padding=(1, 1))
            (1): ReLU(inplace=True)
            (2): Conv2d(64, 64, kernel_size=(3, 3), stride=(1, 1), padding=(1, 1))
            (3): CALayer(
              (avg_pool): AdaptiveAvgPool2d(output_size=1)
              (conv_du): Sequential(
                (0): Conv2d(64, 4, kernel_size=(1, 1), stride=(1, 1))
                (1): ReLU(inplace=True)
                (2): Conv2d(4, 64, kernel_size=(1, 1), stride=(1, 1))
                (3): Sigmoid()
              )
            )
          )
        )
        (18): RCAB(
          (body): Sequential(
            (0): Conv2d(64, 64, kernel_size=(3, 3), stride=(1, 1), padding=(1, 1))
            (1): ReLU(inplace=True)
            (2): Conv2d(64, 64, kernel_size=(3, 3), stride=(1, 1), padding=(1, 1))
            (3): CALayer(
              (avg_pool): AdaptiveAvgPool2d(output_size=1)
              (conv_du): Sequential(
                (0): Conv2d(64, 4, kernel_size=(1, 1), stride=(1, 1))
                (1): ReLU(inplace=True)
                (2): Conv2d(4, 64, kernel_size=(1, 1), stride=(1, 1))
                (3): Sigmoid()
              )
            )
          )
        )
        (19): RCAB(
          (body): Sequential(
            (0): Conv2d(64, 64, kernel_size=(3, 3), stride=(1, 1), padding=(1, 1))
            (1): ReLU(inplace=True)
            (2): Conv2d(64, 64, kernel_size=(3, 3), stride=(1, 1), padding=(1, 1))
            (3): CALayer(
              (avg_pool): AdaptiveAvgPool2d(output_size=1)
              (conv_du): Sequential(
                (0): Conv2d(64, 4, kernel_size=(1, 1), stride=(1, 1))
                (1): ReLU(inplace=True)
                (2): Conv2d(4, 64, kernel_size=(1, 1), stride=(1, 1))
                (3): Sigmoid()
              )
            )
          )
        )
        (20): RCAB(
          (body): Sequential(
            (0): Conv2d(64, 64, kernel_size=(3, 3), stride=(1, 1), padding=(1, 1))
            (1): ReLU(inplace=True)
            (2): Conv2d(64, 64, kernel_size=(3, 3), stride=(1, 1), padding=(1, 1))
            (3): CALayer(
              (avg_pool): AdaptiveAvgPool2d(output_size=1)
              (conv_du): Sequential(
                (0): Conv2d(64, 4, kernel_size=(1, 1), stride=(1, 1))
                (1): ReLU(inplace=True)
                (2): Conv2d(4, 64, kernel_size=(1, 1), stride=(1, 1))
                (3): Sigmoid()
              )
            )
          )
        )
        (21): RCAB(
          (body): Sequential(
            (0): Conv2d(64, 64, kernel_size=(3, 3), stride=(1, 1), padding=(1, 1))
            (1): ReLU(inplace=True)
            (2): Conv2d(64, 64, kernel_size=(3, 3), stride=(1, 1), padding=(1, 1))
            (3): CALayer(
              (avg_pool): AdaptiveAvgPool2d(output_size=1)
              (conv_du): Sequential(
                (0): Conv2d(64, 4, kernel_size=(1, 1), stride=(1, 1))
                (1): ReLU(inplace=True)
                (2): Conv2d(4, 64, kernel_size=(1, 1), stride=(1, 1))
                (3): Sigmoid()
              )
            )
          )
        )
        (22): RCAB(
          (body): Sequential(
            (0): Conv2d(64, 64, kernel_size=(3, 3), stride=(1, 1), padding=(1, 1))
            (1): ReLU(inplace=True)
            (2): Conv2d(64, 64, kernel_size=(3, 3), stride=(1, 1), padding=(1, 1))
            (3): CALayer(
              (avg_pool): AdaptiveAvgPool2d(output_size=1)
              (conv_du): Sequential(
                (0): Conv2d(64, 4, kernel_size=(1, 1), stride=(1, 1))
                (1): ReLU(inplace=True)
                (2): Conv2d(4, 64, kernel_size=(1, 1), stride=(1, 1))
                (3): Sigmoid()
              )
            )
          )
        )
        (23): RCAB(
          (body): Sequential(
            (0): Conv2d(64, 64, kernel_size=(3, 3), stride=(1, 1), padding=(1, 1))
            (1): ReLU(inplace=True)
            (2): Conv2d(64, 64, kernel_size=(3, 3), stride=(1, 1), padding=(1, 1))
            (3): CALayer(
              (avg_pool): AdaptiveAvgPool2d(output_size=1)
              (conv_du): Sequential(
                (0): Conv2d(64, 4, kernel_size=(1, 1), stride=(1, 1))
                (1): ReLU(inplace=True)
                (2): Conv2d(4, 64, kernel_size=(1, 1), stride=(1, 1))
                (3): Sigmoid()
              )
            )
          )
        )
        (24): RCAB(
          (body): Sequential(
            (0): Conv2d(64, 64, kernel_size=(3, 3), stride=(1, 1), padding=(1, 1))
            (1): ReLU(inplace=True)
            (2): Conv2d(64, 64, kernel_size=(3, 3), stride=(1, 1), padding=(1, 1))
            (3): CALayer(
              (avg_pool): AdaptiveAvgPool2d(output_size=1)
              (conv_du): Sequential(
                (0): Conv2d(64, 4, kernel_size=(1, 1), stride=(1, 1))
                (1): ReLU(inplace=True)
                (2): Conv2d(4, 64, kernel_size=(1, 1), stride=(1, 1))
                (3): Sigmoid()
              )
            )
          )
        )
        (25): RCAB(
          (body): Sequential(
            (0): Conv2d(64, 64, kernel_size=(3, 3), stride=(1, 1), padding=(1, 1))
            (1): ReLU(inplace=True)
            (2): Conv2d(64, 64, kernel_size=(3, 3), stride=(1, 1), padding=(1, 1))
            (3): CALayer(
              (avg_pool): AdaptiveAvgPool2d(output_size=1)
              (conv_du): Sequential(
                (0): Conv2d(64, 4, kernel_size=(1, 1), stride=(1, 1))
                (1): ReLU(inplace=True)
                (2): Conv2d(4, 64, kernel_size=(1, 1), stride=(1, 1))
                (3): Sigmoid()
              )
            )
          )
        )
        (26): RCAB(
          (body): Sequential(
            (0): Conv2d(64, 64, kernel_size=(3, 3), stride=(1, 1), padding=(1, 1))
            (1): ReLU(inplace=True)
            (2): Conv2d(64, 64, kernel_size=(3, 3), stride=(1, 1), padding=(1, 1))
            (3): CALayer(
              (avg_pool): AdaptiveAvgPool2d(output_size=1)
              (conv_du): Sequential(
                (0): Conv2d(64, 4, kernel_size=(1, 1), stride=(1, 1))
                (1): ReLU(inplace=True)
                (2): Conv2d(4, 64, kernel_size=(1, 1), stride=(1, 1))
                (3): Sigmoid()
              )
            )
          )
        )
        (27): RCAB(
          (body): Sequential(
            (0): Conv2d(64, 64, kernel_size=(3, 3), stride=(1, 1), padding=(1, 1))
            (1): ReLU(inplace=True)
            (2): Conv2d(64, 64, kernel_size=(3, 3), stride=(1, 1), padding=(1, 1))
            (3): CALayer(
              (avg_pool): AdaptiveAvgPool2d(output_size=1)
              (conv_du): Sequential(
                (0): Conv2d(64, 4, kernel_size=(1, 1), stride=(1, 1))
                (1): ReLU(inplace=True)
                (2): Conv2d(4, 64, kernel_size=(1, 1), stride=(1, 1))
                (3): Sigmoid()
              )
            )
          )
        )
        (28): RCAB(
          (body): Sequential(
            (0): Conv2d(64, 64, kernel_size=(3, 3), stride=(1, 1), padding=(1, 1))
            (1): ReLU(inplace=True)
            (2): Conv2d(64, 64, kernel_size=(3, 3), stride=(1, 1), padding=(1, 1))
            (3): CALayer(
              (avg_pool): AdaptiveAvgPool2d(output_size=1)
              (conv_du): Sequential(
                (0): Conv2d(64, 4, kernel_size=(1, 1), stride=(1, 1))
                (1): ReLU(inplace=True)
                (2): Conv2d(4, 64, kernel_size=(1, 1), stride=(1, 1))
                (3): Sigmoid()
              )
            )
          )
        )
        (29): RCAB(
          (body): Sequential(
            (0): Conv2d(64, 64, kernel_size=(3, 3), stride=(1, 1), padding=(1, 1))
            (1): ReLU(inplace=True)
            (2): Conv2d(64, 64, kernel_size=(3, 3), stride=(1, 1), padding=(1, 1))
            (3): CALayer(
              (avg_pool): AdaptiveAvgPool2d(output_size=1)
              (conv_du): Sequential(
                (0): Conv2d(64, 4, kernel_size=(1, 1), stride=(1, 1))
                (1): ReLU(inplace=True)
                (2): Conv2d(4, 64, kernel_size=(1, 1), stride=(1, 1))
                (3): Sigmoid()
              )
            )
          )
        )
        (30): Upsampler(
          (0): Conv2d(64, 256, kernel_size=(3, 3), stride=(1, 1), padding=(1, 1))
          (1): PixelShuffle(upscale_factor=2)
        )
        (31): Conv2d(64, 32, kernel_size=(1, 1), stride=(1, 1))
      )
      (1): Sequential(
        (0): RCAB(
          (body): Sequential(
            (0): Conv2d(64, 64, kernel_size=(3, 3), stride=(1, 1), padding=(1, 1))
            (1): ReLU(inplace=True)
            (2): Conv2d(64, 64, kernel_size=(3, 3), stride=(1, 1), padding=(1, 1))
            (3): CALayer(
              (avg_pool): AdaptiveAvgPool2d(output_size=1)
              (conv_du): Sequential(
                (0): Conv2d(64, 4, kernel_size=(1, 1), stride=(1, 1))
                (1): ReLU(inplace=True)
                (2): Conv2d(4, 64, kernel_size=(1, 1), stride=(1, 1))
                (3): Sigmoid()
              )
            )
          )
        )
        (1): RCAB(
          (body): Sequential(
            (0): Conv2d(64, 64, kernel_size=(3, 3), stride=(1, 1), padding=(1, 1))
            (1): ReLU(inplace=True)
            (2): Conv2d(64, 64, kernel_size=(3, 3), stride=(1, 1), padding=(1, 1))
            (3): CALayer(
              (avg_pool): AdaptiveAvgPool2d(output_size=1)
              (conv_du): Sequential(
                (0): Conv2d(64, 4, kernel_size=(1, 1), stride=(1, 1))
                (1): ReLU(inplace=True)
                (2): Conv2d(4, 64, kernel_size=(1, 1), stride=(1, 1))
                (3): Sigmoid()
              )
            )
          )
        )
        (2): RCAB(
          (body): Sequential(
            (0): Conv2d(64, 64, kernel_size=(3, 3), stride=(1, 1), padding=(1, 1))
            (1): ReLU(inplace=True)
            (2): Conv2d(64, 64, kernel_size=(3, 3), stride=(1, 1), padding=(1, 1))
            (3): CALayer(
              (avg_pool): AdaptiveAvgPool2d(output_size=1)
              (conv_du): Sequential(
                (0): Conv2d(64, 4, kernel_size=(1, 1), stride=(1, 1))
                (1): ReLU(inplace=True)
                (2): Conv2d(4, 64, kernel_size=(1, 1), stride=(1, 1))
                (3): Sigmoid()
              )
            )
          )
        )
        (3): RCAB(
          (body): Sequential(
            (0): Conv2d(64, 64, kernel_size=(3, 3), stride=(1, 1), padding=(1, 1))
            (1): ReLU(inplace=True)
            (2): Conv2d(64, 64, kernel_size=(3, 3), stride=(1, 1), padding=(1, 1))
            (3): CALayer(
              (avg_pool): AdaptiveAvgPool2d(output_size=1)
              (conv_du): Sequential(
                (0): Conv2d(64, 4, kernel_size=(1, 1), stride=(1, 1))
                (1): ReLU(inplace=True)
                (2): Conv2d(4, 64, kernel_size=(1, 1), stride=(1, 1))
                (3): Sigmoid()
              )
            )
          )
        )
        (4): RCAB(
          (body): Sequential(
            (0): Conv2d(64, 64, kernel_size=(3, 3), stride=(1, 1), padding=(1, 1))
            (1): ReLU(inplace=True)
            (2): Conv2d(64, 64, kernel_size=(3, 3), stride=(1, 1), padding=(1, 1))
            (3): CALayer(
              (avg_pool): AdaptiveAvgPool2d(output_size=1)
              (conv_du): Sequential(
                (0): Conv2d(64, 4, kernel_size=(1, 1), stride=(1, 1))
                (1): ReLU(inplace=True)
                (2): Conv2d(4, 64, kernel_size=(1, 1), stride=(1, 1))
                (3): Sigmoid()
              )
            )
          )
        )
        (5): RCAB(
          (body): Sequential(
            (0): Conv2d(64, 64, kernel_size=(3, 3), stride=(1, 1), padding=(1, 1))
            (1): ReLU(inplace=True)
            (2): Conv2d(64, 64, kernel_size=(3, 3), stride=(1, 1), padding=(1, 1))
            (3): CALayer(
              (avg_pool): AdaptiveAvgPool2d(output_size=1)
              (conv_du): Sequential(
                (0): Conv2d(64, 4, kernel_size=(1, 1), stride=(1, 1))
                (1): ReLU(inplace=True)
                (2): Conv2d(4, 64, kernel_size=(1, 1), stride=(1, 1))
                (3): Sigmoid()
              )
            )
          )
        )
        (6): RCAB(
          (body): Sequential(
            (0): Conv2d(64, 64, kernel_size=(3, 3), stride=(1, 1), padding=(1, 1))
            (1): ReLU(inplace=True)
            (2): Conv2d(64, 64, kernel_size=(3, 3), stride=(1, 1), padding=(1, 1))
            (3): CALayer(
              (avg_pool): AdaptiveAvgPool2d(output_size=1)
              (conv_du): Sequential(
                (0): Conv2d(64, 4, kernel_size=(1, 1), stride=(1, 1))
                (1): ReLU(inplace=True)
                (2): Conv2d(4, 64, kernel_size=(1, 1), stride=(1, 1))
                (3): Sigmoid()
              )
            )
          )
        )
        (7): RCAB(
          (body): Sequential(
            (0): Conv2d(64, 64, kernel_size=(3, 3), stride=(1, 1), padding=(1, 1))
            (1): ReLU(inplace=True)
            (2): Conv2d(64, 64, kernel_size=(3, 3), stride=(1, 1), padding=(1, 1))
            (3): CALayer(
              (avg_pool): AdaptiveAvgPool2d(output_size=1)
              (conv_du): Sequential(
                (0): Conv2d(64, 4, kernel_size=(1, 1), stride=(1, 1))
                (1): ReLU(inplace=True)
                (2): Conv2d(4, 64, kernel_size=(1, 1), stride=(1, 1))
                (3): Sigmoid()
              )
            )
          )
        )
        (8): RCAB(
          (body): Sequential(
            (0): Conv2d(64, 64, kernel_size=(3, 3), stride=(1, 1), padding=(1, 1))
            (1): ReLU(inplace=True)
            (2): Conv2d(64, 64, kernel_size=(3, 3), stride=(1, 1), padding=(1, 1))
            (3): CALayer(
              (avg_pool): AdaptiveAvgPool2d(output_size=1)
              (conv_du): Sequential(
                (0): Conv2d(64, 4, kernel_size=(1, 1), stride=(1, 1))
                (1): ReLU(inplace=True)
                (2): Conv2d(4, 64, kernel_size=(1, 1), stride=(1, 1))
                (3): Sigmoid()
              )
            )
          )
        )
        (9): RCAB(
          (body): Sequential(
            (0): Conv2d(64, 64, kernel_size=(3, 3), stride=(1, 1), padding=(1, 1))
            (1): ReLU(inplace=True)
            (2): Conv2d(64, 64, kernel_size=(3, 3), stride=(1, 1), padding=(1, 1))
            (3): CALayer(
              (avg_pool): AdaptiveAvgPool2d(output_size=1)
              (conv_du): Sequential(
                (0): Conv2d(64, 4, kernel_size=(1, 1), stride=(1, 1))
                (1): ReLU(inplace=True)
                (2): Conv2d(4, 64, kernel_size=(1, 1), stride=(1, 1))
                (3): Sigmoid()
              )
            )
          )
        )
        (10): RCAB(
          (body): Sequential(
            (0): Conv2d(64, 64, kernel_size=(3, 3), stride=(1, 1), padding=(1, 1))
            (1): ReLU(inplace=True)
            (2): Conv2d(64, 64, kernel_size=(3, 3), stride=(1, 1), padding=(1, 1))
            (3): CALayer(
              (avg_pool): AdaptiveAvgPool2d(output_size=1)
              (conv_du): Sequential(
                (0): Conv2d(64, 4, kernel_size=(1, 1), stride=(1, 1))
                (1): ReLU(inplace=True)
                (2): Conv2d(4, 64, kernel_size=(1, 1), stride=(1, 1))
                (3): Sigmoid()
              )
            )
          )
        )
        (11): RCAB(
          (body): Sequential(
            (0): Conv2d(64, 64, kernel_size=(3, 3), stride=(1, 1), padding=(1, 1))
            (1): ReLU(inplace=True)
            (2): Conv2d(64, 64, kernel_size=(3, 3), stride=(1, 1), padding=(1, 1))
            (3): CALayer(
              (avg_pool): AdaptiveAvgPool2d(output_size=1)
              (conv_du): Sequential(
                (0): Conv2d(64, 4, kernel_size=(1, 1), stride=(1, 1))
                (1): ReLU(inplace=True)
                (2): Conv2d(4, 64, kernel_size=(1, 1), stride=(1, 1))
                (3): Sigmoid()
              )
            )
          )
        )
        (12): RCAB(
          (body): Sequential(
            (0): Conv2d(64, 64, kernel_size=(3, 3), stride=(1, 1), padding=(1, 1))
            (1): ReLU(inplace=True)
            (2): Conv2d(64, 64, kernel_size=(3, 3), stride=(1, 1), padding=(1, 1))
            (3): CALayer(
              (avg_pool): AdaptiveAvgPool2d(output_size=1)
              (conv_du): Sequential(
                (0): Conv2d(64, 4, kernel_size=(1, 1), stride=(1, 1))
                (1): ReLU(inplace=True)
                (2): Conv2d(4, 64, kernel_size=(1, 1), stride=(1, 1))
                (3): Sigmoid()
              )
            )
          )
        )
        (13): RCAB(
          (body): Sequential(
            (0): Conv2d(64, 64, kernel_size=(3, 3), stride=(1, 1), padding=(1, 1))
            (1): ReLU(inplace=True)
            (2): Conv2d(64, 64, kernel_size=(3, 3), stride=(1, 1), padding=(1, 1))
            (3): CALayer(
              (avg_pool): AdaptiveAvgPool2d(output_size=1)
              (conv_du): Sequential(
                (0): Conv2d(64, 4, kernel_size=(1, 1), stride=(1, 1))
                (1): ReLU(inplace=True)
                (2): Conv2d(4, 64, kernel_size=(1, 1), stride=(1, 1))
                (3): Sigmoid()
              )
            )
          )
        )
        (14): RCAB(
          (body): Sequential(
            (0): Conv2d(64, 64, kernel_size=(3, 3), stride=(1, 1), padding=(1, 1))
            (1): ReLU(inplace=True)
            (2): Conv2d(64, 64, kernel_size=(3, 3), stride=(1, 1), padding=(1, 1))
            (3): CALayer(
              (avg_pool): AdaptiveAvgPool2d(output_size=1)
              (conv_du): Sequential(
                (0): Conv2d(64, 4, kernel_size=(1, 1), stride=(1, 1))
                (1): ReLU(inplace=True)
                (2): Conv2d(4, 64, kernel_size=(1, 1), stride=(1, 1))
                (3): Sigmoid()
              )
            )
          )
        )
        (15): RCAB(
          (body): Sequential(
            (0): Conv2d(64, 64, kernel_size=(3, 3), stride=(1, 1), padding=(1, 1))
            (1): ReLU(inplace=True)
            (2): Conv2d(64, 64, kernel_size=(3, 3), stride=(1, 1), padding=(1, 1))
            (3): CALayer(
              (avg_pool): AdaptiveAvgPool2d(output_size=1)
              (conv_du): Sequential(
                (0): Conv2d(64, 4, kernel_size=(1, 1), stride=(1, 1))
                (1): ReLU(inplace=True)
                (2): Conv2d(4, 64, kernel_size=(1, 1), stride=(1, 1))
                (3): Sigmoid()
              )
            )
          )
        )
        (16): RCAB(
          (body): Sequential(
            (0): Conv2d(64, 64, kernel_size=(3, 3), stride=(1, 1), padding=(1, 1))
            (1): ReLU(inplace=True)
            (2): Conv2d(64, 64, kernel_size=(3, 3), stride=(1, 1), padding=(1, 1))
            (3): CALayer(
              (avg_pool): AdaptiveAvgPool2d(output_size=1)
              (conv_du): Sequential(
                (0): Conv2d(64, 4, kernel_size=(1, 1), stride=(1, 1))
                (1): ReLU(inplace=True)
                (2): Conv2d(4, 64, kernel_size=(1, 1), stride=(1, 1))
                (3): Sigmoid()
              )
            )
          )
        )
        (17): RCAB(
          (body): Sequential(
            (0): Conv2d(64, 64, kernel_size=(3, 3), stride=(1, 1), padding=(1, 1))
            (1): ReLU(inplace=True)
            (2): Conv2d(64, 64, kernel_size=(3, 3), stride=(1, 1), padding=(1, 1))
            (3): CALayer(
              (avg_pool): AdaptiveAvgPool2d(output_size=1)
              (conv_du): Sequential(
                (0): Conv2d(64, 4, kernel_size=(1, 1), stride=(1, 1))
                (1): ReLU(inplace=True)
                (2): Conv2d(4, 64, kernel_size=(1, 1), stride=(1, 1))
                (3): Sigmoid()
              )
            )
          )
        )
        (18): RCAB(
          (body): Sequential(
            (0): Conv2d(64, 64, kernel_size=(3, 3), stride=(1, 1), padding=(1, 1))
            (1): ReLU(inplace=True)
            (2): Conv2d(64, 64, kernel_size=(3, 3), stride=(1, 1), padding=(1, 1))
            (3): CALayer(
              (avg_pool): AdaptiveAvgPool2d(output_size=1)
              (conv_du): Sequential(
                (0): Conv2d(64, 4, kernel_size=(1, 1), stride=(1, 1))
                (1): ReLU(inplace=True)
                (2): Conv2d(4, 64, kernel_size=(1, 1), stride=(1, 1))
                (3): Sigmoid()
              )
            )
          )
        )
        (19): RCAB(
          (body): Sequential(
            (0): Conv2d(64, 64, kernel_size=(3, 3), stride=(1, 1), padding=(1, 1))
            (1): ReLU(inplace=True)
            (2): Conv2d(64, 64, kernel_size=(3, 3), stride=(1, 1), padding=(1, 1))
            (3): CALayer(
              (avg_pool): AdaptiveAvgPool2d(output_size=1)
              (conv_du): Sequential(
                (0): Conv2d(64, 4, kernel_size=(1, 1), stride=(1, 1))
                (1): ReLU(inplace=True)
                (2): Conv2d(4, 64, kernel_size=(1, 1), stride=(1, 1))
                (3): Sigmoid()
              )
            )
          )
        )
        (20): RCAB(
          (body): Sequential(
            (0): Conv2d(64, 64, kernel_size=(3, 3), stride=(1, 1), padding=(1, 1))
            (1): ReLU(inplace=True)
            (2): Conv2d(64, 64, kernel_size=(3, 3), stride=(1, 1), padding=(1, 1))
            (3): CALayer(
              (avg_pool): AdaptiveAvgPool2d(output_size=1)
              (conv_du): Sequential(
                (0): Conv2d(64, 4, kernel_size=(1, 1), stride=(1, 1))
                (1): ReLU(inplace=True)
                (2): Conv2d(4, 64, kernel_size=(1, 1), stride=(1, 1))
                (3): Sigmoid()
              )
            )
          )
        )
        (21): RCAB(
          (body): Sequential(
            (0): Conv2d(64, 64, kernel_size=(3, 3), stride=(1, 1), padding=(1, 1))
            (1): ReLU(inplace=True)
            (2): Conv2d(64, 64, kernel_size=(3, 3), stride=(1, 1), padding=(1, 1))
            (3): CALayer(
              (avg_pool): AdaptiveAvgPool2d(output_size=1)
              (conv_du): Sequential(
                (0): Conv2d(64, 4, kernel_size=(1, 1), stride=(1, 1))
                (1): ReLU(inplace=True)
                (2): Conv2d(4, 64, kernel_size=(1, 1), stride=(1, 1))
                (3): Sigmoid()
              )
            )
          )
        )
        (22): RCAB(
          (body): Sequential(
            (0): Conv2d(64, 64, kernel_size=(3, 3), stride=(1, 1), padding=(1, 1))
            (1): ReLU(inplace=True)
            (2): Conv2d(64, 64, kernel_size=(3, 3), stride=(1, 1), padding=(1, 1))
            (3): CALayer(
              (avg_pool): AdaptiveAvgPool2d(output_size=1)
              (conv_du): Sequential(
                (0): Conv2d(64, 4, kernel_size=(1, 1), stride=(1, 1))
                (1): ReLU(inplace=True)
                (2): Conv2d(4, 64, kernel_size=(1, 1), stride=(1, 1))
                (3): Sigmoid()
              )
            )
          )
        )
        (23): RCAB(
          (body): Sequential(
            (0): Conv2d(64, 64, kernel_size=(3, 3), stride=(1, 1), padding=(1, 1))
            (1): ReLU(inplace=True)
            (2): Conv2d(64, 64, kernel_size=(3, 3), stride=(1, 1), padding=(1, 1))
            (3): CALayer(
              (avg_pool): AdaptiveAvgPool2d(output_size=1)
              (conv_du): Sequential(
                (0): Conv2d(64, 4, kernel_size=(1, 1), stride=(1, 1))
                (1): ReLU(inplace=True)
                (2): Conv2d(4, 64, kernel_size=(1, 1), stride=(1, 1))
                (3): Sigmoid()
              )
            )
          )
        )
        (24): RCAB(
          (body): Sequential(
            (0): Conv2d(64, 64, kernel_size=(3, 3), stride=(1, 1), padding=(1, 1))
            (1): ReLU(inplace=True)
            (2): Conv2d(64, 64, kernel_size=(3, 3), stride=(1, 1), padding=(1, 1))
            (3): CALayer(
              (avg_pool): AdaptiveAvgPool2d(output_size=1)
              (conv_du): Sequential(
                (0): Conv2d(64, 4, kernel_size=(1, 1), stride=(1, 1))
                (1): ReLU(inplace=True)
                (2): Conv2d(4, 64, kernel_size=(1, 1), stride=(1, 1))
                (3): Sigmoid()
              )
            )
          )
        )
        (25): RCAB(
          (body): Sequential(
            (0): Conv2d(64, 64, kernel_size=(3, 3), stride=(1, 1), padding=(1, 1))
            (1): ReLU(inplace=True)
            (2): Conv2d(64, 64, kernel_size=(3, 3), stride=(1, 1), padding=(1, 1))
            (3): CALayer(
              (avg_pool): AdaptiveAvgPool2d(output_size=1)
              (conv_du): Sequential(
                (0): Conv2d(64, 4, kernel_size=(1, 1), stride=(1, 1))
                (1): ReLU(inplace=True)
                (2): Conv2d(4, 64, kernel_size=(1, 1), stride=(1, 1))
                (3): Sigmoid()
              )
            )
          )
        )
        (26): RCAB(
          (body): Sequential(
            (0): Conv2d(64, 64, kernel_size=(3, 3), stride=(1, 1), padding=(1, 1))
            (1): ReLU(inplace=True)
            (2): Conv2d(64, 64, kernel_size=(3, 3), stride=(1, 1), padding=(1, 1))
            (3): CALayer(
              (avg_pool): AdaptiveAvgPool2d(output_size=1)
              (conv_du): Sequential(
                (0): Conv2d(64, 4, kernel_size=(1, 1), stride=(1, 1))
                (1): ReLU(inplace=True)
                (2): Conv2d(4, 64, kernel_size=(1, 1), stride=(1, 1))
                (3): Sigmoid()
              )
            )
          )
        )
        (27): RCAB(
          (body): Sequential(
            (0): Conv2d(64, 64, kernel_size=(3, 3), stride=(1, 1), padding=(1, 1))
            (1): ReLU(inplace=True)
            (2): Conv2d(64, 64, kernel_size=(3, 3), stride=(1, 1), padding=(1, 1))
            (3): CALayer(
              (avg_pool): AdaptiveAvgPool2d(output_size=1)
              (conv_du): Sequential(
                (0): Conv2d(64, 4, kernel_size=(1, 1), stride=(1, 1))
                (1): ReLU(inplace=True)
                (2): Conv2d(4, 64, kernel_size=(1, 1), stride=(1, 1))
                (3): Sigmoid()
              )
            )
          )
        )
        (28): RCAB(
          (body): Sequential(
            (0): Conv2d(64, 64, kernel_size=(3, 3), stride=(1, 1), padding=(1, 1))
            (1): ReLU(inplace=True)
            (2): Conv2d(64, 64, kernel_size=(3, 3), stride=(1, 1), padding=(1, 1))
            (3): CALayer(
              (avg_pool): AdaptiveAvgPool2d(output_size=1)
              (conv_du): Sequential(
                (0): Conv2d(64, 4, kernel_size=(1, 1), stride=(1, 1))
                (1): ReLU(inplace=True)
                (2): Conv2d(4, 64, kernel_size=(1, 1), stride=(1, 1))
                (3): Sigmoid()
              )
            )
          )
        )
        (29): RCAB(
          (body): Sequential(
            (0): Conv2d(64, 64, kernel_size=(3, 3), stride=(1, 1), padding=(1, 1))
            (1): ReLU(inplace=True)
            (2): Conv2d(64, 64, kernel_size=(3, 3), stride=(1, 1), padding=(1, 1))
            (3): CALayer(
              (avg_pool): AdaptiveAvgPool2d(output_size=1)
              (conv_du): Sequential(
                (0): Conv2d(64, 4, kernel_size=(1, 1), stride=(1, 1))
                (1): ReLU(inplace=True)
                (2): Conv2d(4, 64, kernel_size=(1, 1), stride=(1, 1))
                (3): Sigmoid()
              )
            )
          )
        )
        (30): Upsampler(
          (0): Conv2d(64, 256, kernel_size=(3, 3), stride=(1, 1), padding=(1, 1))
          (1): PixelShuffle(upscale_factor=2)
        )
        (31): Conv2d(64, 16, kernel_size=(1, 1), stride=(1, 1))
      )
      (2): Sequential(
        (0): RCAB(
          (body): Sequential(
            (0): Conv2d(32, 32, kernel_size=(3, 3), stride=(1, 1), padding=(1, 1))
            (1): ReLU(inplace=True)
            (2): Conv2d(32, 32, kernel_size=(3, 3), stride=(1, 1), padding=(1, 1))
            (3): CALayer(
              (avg_pool): AdaptiveAvgPool2d(output_size=1)
              (conv_du): Sequential(
                (0): Conv2d(32, 2, kernel_size=(1, 1), stride=(1, 1))
                (1): ReLU(inplace=True)
                (2): Conv2d(2, 32, kernel_size=(1, 1), stride=(1, 1))
                (3): Sigmoid()
              )
            )
          )
        )
        (1): RCAB(
          (body): Sequential(
            (0): Conv2d(32, 32, kernel_size=(3, 3), stride=(1, 1), padding=(1, 1))
            (1): ReLU(inplace=True)
            (2): Conv2d(32, 32, kernel_size=(3, 3), stride=(1, 1), padding=(1, 1))
            (3): CALayer(
              (avg_pool): AdaptiveAvgPool2d(output_size=1)
              (conv_du): Sequential(
                (0): Conv2d(32, 2, kernel_size=(1, 1), stride=(1, 1))
                (1): ReLU(inplace=True)
                (2): Conv2d(2, 32, kernel_size=(1, 1), stride=(1, 1))
                (3): Sigmoid()
              )
            )
          )
        )
        (2): RCAB(
          (body): Sequential(
            (0): Conv2d(32, 32, kernel_size=(3, 3), stride=(1, 1), padding=(1, 1))
            (1): ReLU(inplace=True)
            (2): Conv2d(32, 32, kernel_size=(3, 3), stride=(1, 1), padding=(1, 1))
            (3): CALayer(
              (avg_pool): AdaptiveAvgPool2d(output_size=1)
              (conv_du): Sequential(
                (0): Conv2d(32, 2, kernel_size=(1, 1), stride=(1, 1))
                (1): ReLU(inplace=True)
                (2): Conv2d(2, 32, kernel_size=(1, 1), stride=(1, 1))
                (3): Sigmoid()
              )
            )
          )
        )
        (3): RCAB(
          (body): Sequential(
            (0): Conv2d(32, 32, kernel_size=(3, 3), stride=(1, 1), padding=(1, 1))
            (1): ReLU(inplace=True)
            (2): Conv2d(32, 32, kernel_size=(3, 3), stride=(1, 1), padding=(1, 1))
            (3): CALayer(
              (avg_pool): AdaptiveAvgPool2d(output_size=1)
              (conv_du): Sequential(
                (0): Conv2d(32, 2, kernel_size=(1, 1), stride=(1, 1))
                (1): ReLU(inplace=True)
                (2): Conv2d(2, 32, kernel_size=(1, 1), stride=(1, 1))
                (3): Sigmoid()
              )
            )
          )
        )
        (4): RCAB(
          (body): Sequential(
            (0): Conv2d(32, 32, kernel_size=(3, 3), stride=(1, 1), padding=(1, 1))
            (1): ReLU(inplace=True)
            (2): Conv2d(32, 32, kernel_size=(3, 3), stride=(1, 1), padding=(1, 1))
            (3): CALayer(
              (avg_pool): AdaptiveAvgPool2d(output_size=1)
              (conv_du): Sequential(
                (0): Conv2d(32, 2, kernel_size=(1, 1), stride=(1, 1))
                (1): ReLU(inplace=True)
                (2): Conv2d(2, 32, kernel_size=(1, 1), stride=(1, 1))
                (3): Sigmoid()
              )
            )
          )
        )
        (5): RCAB(
          (body): Sequential(
            (0): Conv2d(32, 32, kernel_size=(3, 3), stride=(1, 1), padding=(1, 1))
            (1): ReLU(inplace=True)
            (2): Conv2d(32, 32, kernel_size=(3, 3), stride=(1, 1), padding=(1, 1))
            (3): CALayer(
              (avg_pool): AdaptiveAvgPool2d(output_size=1)
              (conv_du): Sequential(
                (0): Conv2d(32, 2, kernel_size=(1, 1), stride=(1, 1))
                (1): ReLU(inplace=True)
                (2): Conv2d(2, 32, kernel_size=(1, 1), stride=(1, 1))
                (3): Sigmoid()
              )
            )
          )
        )
        (6): RCAB(
          (body): Sequential(
            (0): Conv2d(32, 32, kernel_size=(3, 3), stride=(1, 1), padding=(1, 1))
            (1): ReLU(inplace=True)
            (2): Conv2d(32, 32, kernel_size=(3, 3), stride=(1, 1), padding=(1, 1))
            (3): CALayer(
              (avg_pool): AdaptiveAvgPool2d(output_size=1)
              (conv_du): Sequential(
                (0): Conv2d(32, 2, kernel_size=(1, 1), stride=(1, 1))
                (1): ReLU(inplace=True)
                (2): Conv2d(2, 32, kernel_size=(1, 1), stride=(1, 1))
                (3): Sigmoid()
              )
            )
          )
        )
        (7): RCAB(
          (body): Sequential(
            (0): Conv2d(32, 32, kernel_size=(3, 3), stride=(1, 1), padding=(1, 1))
            (1): ReLU(inplace=True)
            (2): Conv2d(32, 32, kernel_size=(3, 3), stride=(1, 1), padding=(1, 1))
            (3): CALayer(
              (avg_pool): AdaptiveAvgPool2d(output_size=1)
              (conv_du): Sequential(
                (0): Conv2d(32, 2, kernel_size=(1, 1), stride=(1, 1))
                (1): ReLU(inplace=True)
                (2): Conv2d(2, 32, kernel_size=(1, 1), stride=(1, 1))
                (3): Sigmoid()
              )
            )
          )
        )
        (8): RCAB(
          (body): Sequential(
            (0): Conv2d(32, 32, kernel_size=(3, 3), stride=(1, 1), padding=(1, 1))
            (1): ReLU(inplace=True)
            (2): Conv2d(32, 32, kernel_size=(3, 3), stride=(1, 1), padding=(1, 1))
            (3): CALayer(
              (avg_pool): AdaptiveAvgPool2d(output_size=1)
              (conv_du): Sequential(
                (0): Conv2d(32, 2, kernel_size=(1, 1), stride=(1, 1))
                (1): ReLU(inplace=True)
                (2): Conv2d(2, 32, kernel_size=(1, 1), stride=(1, 1))
                (3): Sigmoid()
              )
            )
          )
        )
        (9): RCAB(
          (body): Sequential(
            (0): Conv2d(32, 32, kernel_size=(3, 3), stride=(1, 1), padding=(1, 1))
            (1): ReLU(inplace=True)
            (2): Conv2d(32, 32, kernel_size=(3, 3), stride=(1, 1), padding=(1, 1))
            (3): CALayer(
              (avg_pool): AdaptiveAvgPool2d(output_size=1)
              (conv_du): Sequential(
                (0): Conv2d(32, 2, kernel_size=(1, 1), stride=(1, 1))
                (1): ReLU(inplace=True)
                (2): Conv2d(2, 32, kernel_size=(1, 1), stride=(1, 1))
                (3): Sigmoid()
              )
            )
          )
        )
        (10): RCAB(
          (body): Sequential(
            (0): Conv2d(32, 32, kernel_size=(3, 3), stride=(1, 1), padding=(1, 1))
            (1): ReLU(inplace=True)
            (2): Conv2d(32, 32, kernel_size=(3, 3), stride=(1, 1), padding=(1, 1))
            (3): CALayer(
              (avg_pool): AdaptiveAvgPool2d(output_size=1)
              (conv_du): Sequential(
                (0): Conv2d(32, 2, kernel_size=(1, 1), stride=(1, 1))
                (1): ReLU(inplace=True)
                (2): Conv2d(2, 32, kernel_size=(1, 1), stride=(1, 1))
                (3): Sigmoid()
              )
            )
          )
        )
        (11): RCAB(
          (body): Sequential(
            (0): Conv2d(32, 32, kernel_size=(3, 3), stride=(1, 1), padding=(1, 1))
            (1): ReLU(inplace=True)
            (2): Conv2d(32, 32, kernel_size=(3, 3), stride=(1, 1), padding=(1, 1))
            (3): CALayer(
              (avg_pool): AdaptiveAvgPool2d(output_size=1)
              (conv_du): Sequential(
                (0): Conv2d(32, 2, kernel_size=(1, 1), stride=(1, 1))
                (1): ReLU(inplace=True)
                (2): Conv2d(2, 32, kernel_size=(1, 1), stride=(1, 1))
                (3): Sigmoid()
              )
            )
          )
        )
        (12): RCAB(
          (body): Sequential(
            (0): Conv2d(32, 32, kernel_size=(3, 3), stride=(1, 1), padding=(1, 1))
            (1): ReLU(inplace=True)
            (2): Conv2d(32, 32, kernel_size=(3, 3), stride=(1, 1), padding=(1, 1))
            (3): CALayer(
              (avg_pool): AdaptiveAvgPool2d(output_size=1)
              (conv_du): Sequential(
                (0): Conv2d(32, 2, kernel_size=(1, 1), stride=(1, 1))
                (1): ReLU(inplace=True)
                (2): Conv2d(2, 32, kernel_size=(1, 1), stride=(1, 1))
                (3): Sigmoid()
              )
            )
          )
        )
        (13): RCAB(
          (body): Sequential(
            (0): Conv2d(32, 32, kernel_size=(3, 3), stride=(1, 1), padding=(1, 1))
            (1): ReLU(inplace=True)
            (2): Conv2d(32, 32, kernel_size=(3, 3), stride=(1, 1), padding=(1, 1))
            (3): CALayer(
              (avg_pool): AdaptiveAvgPool2d(output_size=1)
              (conv_du): Sequential(
                (0): Conv2d(32, 2, kernel_size=(1, 1), stride=(1, 1))
                (1): ReLU(inplace=True)
                (2): Conv2d(2, 32, kernel_size=(1, 1), stride=(1, 1))
                (3): Sigmoid()
              )
            )
          )
        )
        (14): RCAB(
          (body): Sequential(
            (0): Conv2d(32, 32, kernel_size=(3, 3), stride=(1, 1), padding=(1, 1))
            (1): ReLU(inplace=True)
            (2): Conv2d(32, 32, kernel_size=(3, 3), stride=(1, 1), padding=(1, 1))
            (3): CALayer(
              (avg_pool): AdaptiveAvgPool2d(output_size=1)
              (conv_du): Sequential(
                (0): Conv2d(32, 2, kernel_size=(1, 1), stride=(1, 1))
                (1): ReLU(inplace=True)
                (2): Conv2d(2, 32, kernel_size=(1, 1), stride=(1, 1))
                (3): Sigmoid()
              )
            )
          )
        )
        (15): RCAB(
          (body): Sequential(
            (0): Conv2d(32, 32, kernel_size=(3, 3), stride=(1, 1), padding=(1, 1))
            (1): ReLU(inplace=True)
            (2): Conv2d(32, 32, kernel_size=(3, 3), stride=(1, 1), padding=(1, 1))
            (3): CALayer(
              (avg_pool): AdaptiveAvgPool2d(output_size=1)
              (conv_du): Sequential(
                (0): Conv2d(32, 2, kernel_size=(1, 1), stride=(1, 1))
                (1): ReLU(inplace=True)
                (2): Conv2d(2, 32, kernel_size=(1, 1), stride=(1, 1))
                (3): Sigmoid()
              )
            )
          )
        )
        (16): RCAB(
          (body): Sequential(
            (0): Conv2d(32, 32, kernel_size=(3, 3), stride=(1, 1), padding=(1, 1))
            (1): ReLU(inplace=True)
            (2): Conv2d(32, 32, kernel_size=(3, 3), stride=(1, 1), padding=(1, 1))
            (3): CALayer(
              (avg_pool): AdaptiveAvgPool2d(output_size=1)
              (conv_du): Sequential(
                (0): Conv2d(32, 2, kernel_size=(1, 1), stride=(1, 1))
                (1): ReLU(inplace=True)
                (2): Conv2d(2, 32, kernel_size=(1, 1), stride=(1, 1))
                (3): Sigmoid()
              )
            )
          )
        )
        (17): RCAB(
          (body): Sequential(
            (0): Conv2d(32, 32, kernel_size=(3, 3), stride=(1, 1), padding=(1, 1))
            (1): ReLU(inplace=True)
            (2): Conv2d(32, 32, kernel_size=(3, 3), stride=(1, 1), padding=(1, 1))
            (3): CALayer(
              (avg_pool): AdaptiveAvgPool2d(output_size=1)
              (conv_du): Sequential(
                (0): Conv2d(32, 2, kernel_size=(1, 1), stride=(1, 1))
                (1): ReLU(inplace=True)
                (2): Conv2d(2, 32, kernel_size=(1, 1), stride=(1, 1))
                (3): Sigmoid()
              )
            )
          )
        )
        (18): RCAB(
          (body): Sequential(
            (0): Conv2d(32, 32, kernel_size=(3, 3), stride=(1, 1), padding=(1, 1))
            (1): ReLU(inplace=True)
            (2): Conv2d(32, 32, kernel_size=(3, 3), stride=(1, 1), padding=(1, 1))
            (3): CALayer(
              (avg_pool): AdaptiveAvgPool2d(output_size=1)
              (conv_du): Sequential(
                (0): Conv2d(32, 2, kernel_size=(1, 1), stride=(1, 1))
                (1): ReLU(inplace=True)
                (2): Conv2d(2, 32, kernel_size=(1, 1), stride=(1, 1))
                (3): Sigmoid()
              )
            )
          )
        )
        (19): RCAB(
          (body): Sequential(
            (0): Conv2d(32, 32, kernel_size=(3, 3), stride=(1, 1), padding=(1, 1))
            (1): ReLU(inplace=True)
            (2): Conv2d(32, 32, kernel_size=(3, 3), stride=(1, 1), padding=(1, 1))
            (3): CALayer(
              (avg_pool): AdaptiveAvgPool2d(output_size=1)
              (conv_du): Sequential(
                (0): Conv2d(32, 2, kernel_size=(1, 1), stride=(1, 1))
                (1): ReLU(inplace=True)
                (2): Conv2d(2, 32, kernel_size=(1, 1), stride=(1, 1))
                (3): Sigmoid()
              )
            )
          )
        )
        (20): RCAB(
          (body): Sequential(
            (0): Conv2d(32, 32, kernel_size=(3, 3), stride=(1, 1), padding=(1, 1))
            (1): ReLU(inplace=True)
            (2): Conv2d(32, 32, kernel_size=(3, 3), stride=(1, 1), padding=(1, 1))
            (3): CALayer(
              (avg_pool): AdaptiveAvgPool2d(output_size=1)
              (conv_du): Sequential(
                (0): Conv2d(32, 2, kernel_size=(1, 1), stride=(1, 1))
                (1): ReLU(inplace=True)
                (2): Conv2d(2, 32, kernel_size=(1, 1), stride=(1, 1))
                (3): Sigmoid()
              )
            )
          )
        )
        (21): RCAB(
          (body): Sequential(
            (0): Conv2d(32, 32, kernel_size=(3, 3), stride=(1, 1), padding=(1, 1))
            (1): ReLU(inplace=True)
            (2): Conv2d(32, 32, kernel_size=(3, 3), stride=(1, 1), padding=(1, 1))
            (3): CALayer(
              (avg_pool): AdaptiveAvgPool2d(output_size=1)
              (conv_du): Sequential(
                (0): Conv2d(32, 2, kernel_size=(1, 1), stride=(1, 1))
                (1): ReLU(inplace=True)
                (2): Conv2d(2, 32, kernel_size=(1, 1), stride=(1, 1))
                (3): Sigmoid()
              )
            )
          )
        )
        (22): RCAB(
          (body): Sequential(
            (0): Conv2d(32, 32, kernel_size=(3, 3), stride=(1, 1), padding=(1, 1))
            (1): ReLU(inplace=True)
            (2): Conv2d(32, 32, kernel_size=(3, 3), stride=(1, 1), padding=(1, 1))
            (3): CALayer(
              (avg_pool): AdaptiveAvgPool2d(output_size=1)
              (conv_du): Sequential(
                (0): Conv2d(32, 2, kernel_size=(1, 1), stride=(1, 1))
                (1): ReLU(inplace=True)
                (2): Conv2d(2, 32, kernel_size=(1, 1), stride=(1, 1))
                (3): Sigmoid()
              )
            )
          )
        )
        (23): RCAB(
          (body): Sequential(
            (0): Conv2d(32, 32, kernel_size=(3, 3), stride=(1, 1), padding=(1, 1))
            (1): ReLU(inplace=True)
            (2): Conv2d(32, 32, kernel_size=(3, 3), stride=(1, 1), padding=(1, 1))
            (3): CALayer(
              (avg_pool): AdaptiveAvgPool2d(output_size=1)
              (conv_du): Sequential(
                (0): Conv2d(32, 2, kernel_size=(1, 1), stride=(1, 1))
                (1): ReLU(inplace=True)
                (2): Conv2d(2, 32, kernel_size=(1, 1), stride=(1, 1))
                (3): Sigmoid()
              )
            )
          )
        )
        (24): RCAB(
          (body): Sequential(
            (0): Conv2d(32, 32, kernel_size=(3, 3), stride=(1, 1), padding=(1, 1))
            (1): ReLU(inplace=True)
            (2): Conv2d(32, 32, kernel_size=(3, 3), stride=(1, 1), padding=(1, 1))
            (3): CALayer(
              (avg_pool): AdaptiveAvgPool2d(output_size=1)
              (conv_du): Sequential(
                (0): Conv2d(32, 2, kernel_size=(1, 1), stride=(1, 1))
                (1): ReLU(inplace=True)
                (2): Conv2d(2, 32, kernel_size=(1, 1), stride=(1, 1))
                (3): Sigmoid()
              )
            )
          )
        )
        (25): RCAB(
          (body): Sequential(
            (0): Conv2d(32, 32, kernel_size=(3, 3), stride=(1, 1), padding=(1, 1))
            (1): ReLU(inplace=True)
            (2): Conv2d(32, 32, kernel_size=(3, 3), stride=(1, 1), padding=(1, 1))
            (3): CALayer(
              (avg_pool): AdaptiveAvgPool2d(output_size=1)
              (conv_du): Sequential(
                (0): Conv2d(32, 2, kernel_size=(1, 1), stride=(1, 1))
                (1): ReLU(inplace=True)
                (2): Conv2d(2, 32, kernel_size=(1, 1), stride=(1, 1))
                (3): Sigmoid()
              )
            )
          )
        )
        (26): RCAB(
          (body): Sequential(
            (0): Conv2d(32, 32, kernel_size=(3, 3), stride=(1, 1), padding=(1, 1))
            (1): ReLU(inplace=True)
            (2): Conv2d(32, 32, kernel_size=(3, 3), stride=(1, 1), padding=(1, 1))
            (3): CALayer(
              (avg_pool): AdaptiveAvgPool2d(output_size=1)
              (conv_du): Sequential(
                (0): Conv2d(32, 2, kernel_size=(1, 1), stride=(1, 1))
                (1): ReLU(inplace=True)
                (2): Conv2d(2, 32, kernel_size=(1, 1), stride=(1, 1))
                (3): Sigmoid()
              )
            )
          )
        )
        (27): RCAB(
          (body): Sequential(
            (0): Conv2d(32, 32, kernel_size=(3, 3), stride=(1, 1), padding=(1, 1))
            (1): ReLU(inplace=True)
            (2): Conv2d(32, 32, kernel_size=(3, 3), stride=(1, 1), padding=(1, 1))
            (3): CALayer(
              (avg_pool): AdaptiveAvgPool2d(output_size=1)
              (conv_du): Sequential(
                (0): Conv2d(32, 2, kernel_size=(1, 1), stride=(1, 1))
                (1): ReLU(inplace=True)
                (2): Conv2d(2, 32, kernel_size=(1, 1), stride=(1, 1))
                (3): Sigmoid()
              )
            )
          )
        )
        (28): RCAB(
          (body): Sequential(
            (0): Conv2d(32, 32, kernel_size=(3, 3), stride=(1, 1), padding=(1, 1))
            (1): ReLU(inplace=True)
            (2): Conv2d(32, 32, kernel_size=(3, 3), stride=(1, 1), padding=(1, 1))
            (3): CALayer(
              (avg_pool): AdaptiveAvgPool2d(output_size=1)
              (conv_du): Sequential(
                (0): Conv2d(32, 2, kernel_size=(1, 1), stride=(1, 1))
                (1): ReLU(inplace=True)
                (2): Conv2d(2, 32, kernel_size=(1, 1), stride=(1, 1))
                (3): Sigmoid()
              )
            )
          )
        )
        (29): RCAB(
          (body): Sequential(
            (0): Conv2d(32, 32, kernel_size=(3, 3), stride=(1, 1), padding=(1, 1))
            (1): ReLU(inplace=True)
            (2): Conv2d(32, 32, kernel_size=(3, 3), stride=(1, 1), padding=(1, 1))
            (3): CALayer(
              (avg_pool): AdaptiveAvgPool2d(output_size=1)
              (conv_du): Sequential(
                (0): Conv2d(32, 2, kernel_size=(1, 1), stride=(1, 1))
                (1): ReLU(inplace=True)
                (2): Conv2d(2, 32, kernel_size=(1, 1), stride=(1, 1))
                (3): Sigmoid()
              )
            )
          )
        )
        (30): Upsampler(
          (0): Conv2d(32, 128, kernel_size=(3, 3), stride=(1, 1), padding=(1, 1))
          (1): PixelShuffle(upscale_factor=2)
        )
        (31): Conv2d(32, 8, kernel_size=(1, 1), stride=(1, 1))
      )
    )
    (tail): ModuleList(
      (0): Conv2d(64, 3, kernel_size=(3, 3), stride=(1, 1), padding=(1, 1))
      (1): Conv2d(64, 3, kernel_size=(3, 3), stride=(1, 1), padding=(1, 1))
      (2): Conv2d(32, 3, kernel_size=(3, 3), stride=(1, 1), padding=(1, 1))
      (3): Conv2d(16, 3, kernel_size=(3, 3), stride=(1, 1), padding=(1, 1))
    )
    (add_mean): MeanShift(3, 3, kernel_size=(1, 1), stride=(1, 1))
  )
)
[DataParallel(
  (module): DownBlock(
    (dual_module): Sequential(
      (0): Sequential(
        (0): Conv2d(3, 8, kernel_size=(3, 3), stride=(2, 2), padding=(1, 1), bias=False)
        (1): LeakyReLU(negative_slope=0.2, inplace=True)
      )
      (1): Conv2d(8, 3, kernel_size=(3, 3), stride=(1, 1), padding=(1, 1), bias=False)
    )
  )
), DataParallel(
  (module): DownBlock(
    (dual_module): Sequential(
      (0): Sequential(
        (0): Conv2d(3, 8, kernel_size=(3, 3), stride=(2, 2), padding=(1, 1), bias=False)
        (1): LeakyReLU(negative_slope=0.2, inplace=True)
      )
      (1): Conv2d(8, 3, kernel_size=(3, 3), stride=(1, 1), padding=(1, 1), bias=False)
    )
  )
), DataParallel(
  (module): DownBlock(
    (dual_module): Sequential(
      (0): Sequential(
        (0): Conv2d(3, 8, kernel_size=(3, 3), stride=(2, 2), padding=(1, 1), bias=False)
        (1): LeakyReLU(negative_slope=0.2, inplace=True)
      )
      (1): Conv2d(8, 3, kernel_size=(3, 3), stride=(1, 1), padding=(1, 1), bias=False)
    )
  )
)]
The number of parameters is 5.40M
[Epoch 1]	Learning rate: 1.00e-4
DataParallel(
  (module): DRN(
    (upsample): Upsample(scale_factor=8.0, mode=bicubic)
    (sub_mean): MeanShift(3, 3, kernel_size=(1, 1), stride=(1, 1))
    (head): Conv2d(3, 8, kernel_size=(3, 3), stride=(1, 1), padding=(1, 1))
    (down): ModuleList(
      (0): DownBlock(
        (dual_module): Sequential(
          (0): Sequential(
            (0): Conv2d(8, 8, kernel_size=(3, 3), stride=(2, 2), padding=(1, 1), bias=False)
            (1): LeakyReLU(negative_slope=0.2, inplace=True)
          )
          (1): Conv2d(8, 16, kernel_size=(3, 3), stride=(1, 1), padding=(1, 1), bias=False)
        )
      )
      (1): DownBlock(
        (dual_module): Sequential(
          (0): Sequential(
            (0): Conv2d(16, 16, kernel_size=(3, 3), stride=(2, 2), padding=(1, 1), bias=False)
            (1): LeakyReLU(negative_slope=0.2, inplace=True)
          )
          (1): Conv2d(16, 32, kernel_size=(3, 3), stride=(1, 1), padding=(1, 1), bias=False)
        )
      )
      (2): DownBlock(
        (dual_module): Sequential(
          (0): Sequential(
            (0): Conv2d(32, 32, kernel_size=(3, 3), stride=(2, 2), padding=(1, 1), bias=False)
            (1): LeakyReLU(negative_slope=0.2, inplace=True)
          )
          (1): Conv2d(32, 64, kernel_size=(3, 3), stride=(1, 1), padding=(1, 1), bias=False)
        )
      )
    )
    (up_blocks): ModuleList(
      (0): Sequential(
        (0): RCAB(
          (body): Sequential(
            (0): Conv2d(64, 64, kernel_size=(3, 3), stride=(1, 1), padding=(1, 1))
            (1): ReLU(inplace=True)
            (2): Conv2d(64, 64, kernel_size=(3, 3), stride=(1, 1), padding=(1, 1))
            (3): CALayer(
              (avg_pool): AdaptiveAvgPool2d(output_size=1)
              (conv_du): Sequential(
                (0): Conv2d(64, 4, kernel_size=(1, 1), stride=(1, 1))
                (1): ReLU(inplace=True)
                (2): Conv2d(4, 64, kernel_size=(1, 1), stride=(1, 1))
                (3): Sigmoid()
              )
            )
          )
        )
        (1): RCAB(
          (body): Sequential(
            (0): Conv2d(64, 64, kernel_size=(3, 3), stride=(1, 1), padding=(1, 1))
            (1): ReLU(inplace=True)
            (2): Conv2d(64, 64, kernel_size=(3, 3), stride=(1, 1), padding=(1, 1))
            (3): CALayer(
              (avg_pool): AdaptiveAvgPool2d(output_size=1)
              (conv_du): Sequential(
                (0): Conv2d(64, 4, kernel_size=(1, 1), stride=(1, 1))
                (1): ReLU(inplace=True)
                (2): Conv2d(4, 64, kernel_size=(1, 1), stride=(1, 1))
                (3): Sigmoid()
              )
            )
          )
        )
        (2): RCAB(
          (body): Sequential(
            (0): Conv2d(64, 64, kernel_size=(3, 3), stride=(1, 1), padding=(1, 1))
            (1): ReLU(inplace=True)
            (2): Conv2d(64, 64, kernel_size=(3, 3), stride=(1, 1), padding=(1, 1))
            (3): CALayer(
              (avg_pool): AdaptiveAvgPool2d(output_size=1)
              (conv_du): Sequential(
                (0): Conv2d(64, 4, kernel_size=(1, 1), stride=(1, 1))
                (1): ReLU(inplace=True)
                (2): Conv2d(4, 64, kernel_size=(1, 1), stride=(1, 1))
                (3): Sigmoid()
              )
            )
          )
        )
        (3): RCAB(
          (body): Sequential(
            (0): Conv2d(64, 64, kernel_size=(3, 3), stride=(1, 1), padding=(1, 1))
            (1): ReLU(inplace=True)
            (2): Conv2d(64, 64, kernel_size=(3, 3), stride=(1, 1), padding=(1, 1))
            (3): CALayer(
              (avg_pool): AdaptiveAvgPool2d(output_size=1)
              (conv_du): Sequential(
                (0): Conv2d(64, 4, kernel_size=(1, 1), stride=(1, 1))
                (1): ReLU(inplace=True)
                (2): Conv2d(4, 64, kernel_size=(1, 1), stride=(1, 1))
                (3): Sigmoid()
              )
            )
          )
        )
        (4): RCAB(
          (body): Sequential(
            (0): Conv2d(64, 64, kernel_size=(3, 3), stride=(1, 1), padding=(1, 1))
            (1): ReLU(inplace=True)
            (2): Conv2d(64, 64, kernel_size=(3, 3), stride=(1, 1), padding=(1, 1))
            (3): CALayer(
              (avg_pool): AdaptiveAvgPool2d(output_size=1)
              (conv_du): Sequential(
                (0): Conv2d(64, 4, kernel_size=(1, 1), stride=(1, 1))
                (1): ReLU(inplace=True)
                (2): Conv2d(4, 64, kernel_size=(1, 1), stride=(1, 1))
                (3): Sigmoid()
              )
            )
          )
        )
        (5): RCAB(
          (body): Sequential(
            (0): Conv2d(64, 64, kernel_size=(3, 3), stride=(1, 1), padding=(1, 1))
            (1): ReLU(inplace=True)
            (2): Conv2d(64, 64, kernel_size=(3, 3), stride=(1, 1), padding=(1, 1))
            (3): CALayer(
              (avg_pool): AdaptiveAvgPool2d(output_size=1)
              (conv_du): Sequential(
                (0): Conv2d(64, 4, kernel_size=(1, 1), stride=(1, 1))
                (1): ReLU(inplace=True)
                (2): Conv2d(4, 64, kernel_size=(1, 1), stride=(1, 1))
                (3): Sigmoid()
              )
            )
          )
        )
        (6): RCAB(
          (body): Sequential(
            (0): Conv2d(64, 64, kernel_size=(3, 3), stride=(1, 1), padding=(1, 1))
            (1): ReLU(inplace=True)
            (2): Conv2d(64, 64, kernel_size=(3, 3), stride=(1, 1), padding=(1, 1))
            (3): CALayer(
              (avg_pool): AdaptiveAvgPool2d(output_size=1)
              (conv_du): Sequential(
                (0): Conv2d(64, 4, kernel_size=(1, 1), stride=(1, 1))
                (1): ReLU(inplace=True)
                (2): Conv2d(4, 64, kernel_size=(1, 1), stride=(1, 1))
                (3): Sigmoid()
              )
            )
          )
        )
        (7): RCAB(
          (body): Sequential(
            (0): Conv2d(64, 64, kernel_size=(3, 3), stride=(1, 1), padding=(1, 1))
            (1): ReLU(inplace=True)
            (2): Conv2d(64, 64, kernel_size=(3, 3), stride=(1, 1), padding=(1, 1))
            (3): CALayer(
              (avg_pool): AdaptiveAvgPool2d(output_size=1)
              (conv_du): Sequential(
                (0): Conv2d(64, 4, kernel_size=(1, 1), stride=(1, 1))
                (1): ReLU(inplace=True)
                (2): Conv2d(4, 64, kernel_size=(1, 1), stride=(1, 1))
                (3): Sigmoid()
              )
            )
          )
        )
        (8): RCAB(
          (body): Sequential(
            (0): Conv2d(64, 64, kernel_size=(3, 3), stride=(1, 1), padding=(1, 1))
            (1): ReLU(inplace=True)
            (2): Conv2d(64, 64, kernel_size=(3, 3), stride=(1, 1), padding=(1, 1))
            (3): CALayer(
              (avg_pool): AdaptiveAvgPool2d(output_size=1)
              (conv_du): Sequential(
                (0): Conv2d(64, 4, kernel_size=(1, 1), stride=(1, 1))
                (1): ReLU(inplace=True)
                (2): Conv2d(4, 64, kernel_size=(1, 1), stride=(1, 1))
                (3): Sigmoid()
              )
            )
          )
        )
        (9): RCAB(
          (body): Sequential(
            (0): Conv2d(64, 64, kernel_size=(3, 3), stride=(1, 1), padding=(1, 1))
            (1): ReLU(inplace=True)
            (2): Conv2d(64, 64, kernel_size=(3, 3), stride=(1, 1), padding=(1, 1))
            (3): CALayer(
              (avg_pool): AdaptiveAvgPool2d(output_size=1)
              (conv_du): Sequential(
                (0): Conv2d(64, 4, kernel_size=(1, 1), stride=(1, 1))
                (1): ReLU(inplace=True)
                (2): Conv2d(4, 64, kernel_size=(1, 1), stride=(1, 1))
                (3): Sigmoid()
              )
            )
          )
        )
        (10): RCAB(
          (body): Sequential(
            (0): Conv2d(64, 64, kernel_size=(3, 3), stride=(1, 1), padding=(1, 1))
            (1): ReLU(inplace=True)
            (2): Conv2d(64, 64, kernel_size=(3, 3), stride=(1, 1), padding=(1, 1))
            (3): CALayer(
              (avg_pool): AdaptiveAvgPool2d(output_size=1)
              (conv_du): Sequential(
                (0): Conv2d(64, 4, kernel_size=(1, 1), stride=(1, 1))
                (1): ReLU(inplace=True)
                (2): Conv2d(4, 64, kernel_size=(1, 1), stride=(1, 1))
                (3): Sigmoid()
              )
            )
          )
        )
        (11): RCAB(
          (body): Sequential(
            (0): Conv2d(64, 64, kernel_size=(3, 3), stride=(1, 1), padding=(1, 1))
            (1): ReLU(inplace=True)
            (2): Conv2d(64, 64, kernel_size=(3, 3), stride=(1, 1), padding=(1, 1))
            (3): CALayer(
              (avg_pool): AdaptiveAvgPool2d(output_size=1)
              (conv_du): Sequential(
                (0): Conv2d(64, 4, kernel_size=(1, 1), stride=(1, 1))
                (1): ReLU(inplace=True)
                (2): Conv2d(4, 64, kernel_size=(1, 1), stride=(1, 1))
                (3): Sigmoid()
              )
            )
          )
        )
        (12): RCAB(
          (body): Sequential(
            (0): Conv2d(64, 64, kernel_size=(3, 3), stride=(1, 1), padding=(1, 1))
            (1): ReLU(inplace=True)
            (2): Conv2d(64, 64, kernel_size=(3, 3), stride=(1, 1), padding=(1, 1))
            (3): CALayer(
              (avg_pool): AdaptiveAvgPool2d(output_size=1)
              (conv_du): Sequential(
                (0): Conv2d(64, 4, kernel_size=(1, 1), stride=(1, 1))
                (1): ReLU(inplace=True)
                (2): Conv2d(4, 64, kernel_size=(1, 1), stride=(1, 1))
                (3): Sigmoid()
              )
            )
          )
        )
        (13): RCAB(
          (body): Sequential(
            (0): Conv2d(64, 64, kernel_size=(3, 3), stride=(1, 1), padding=(1, 1))
            (1): ReLU(inplace=True)
            (2): Conv2d(64, 64, kernel_size=(3, 3), stride=(1, 1), padding=(1, 1))
            (3): CALayer(
              (avg_pool): AdaptiveAvgPool2d(output_size=1)
              (conv_du): Sequential(
                (0): Conv2d(64, 4, kernel_size=(1, 1), stride=(1, 1))
                (1): ReLU(inplace=True)
                (2): Conv2d(4, 64, kernel_size=(1, 1), stride=(1, 1))
                (3): Sigmoid()
              )
            )
          )
        )
        (14): RCAB(
          (body): Sequential(
            (0): Conv2d(64, 64, kernel_size=(3, 3), stride=(1, 1), padding=(1, 1))
            (1): ReLU(inplace=True)
            (2): Conv2d(64, 64, kernel_size=(3, 3), stride=(1, 1), padding=(1, 1))
            (3): CALayer(
              (avg_pool): AdaptiveAvgPool2d(output_size=1)
              (conv_du): Sequential(
                (0): Conv2d(64, 4, kernel_size=(1, 1), stride=(1, 1))
                (1): ReLU(inplace=True)
                (2): Conv2d(4, 64, kernel_size=(1, 1), stride=(1, 1))
                (3): Sigmoid()
              )
            )
          )
        )
        (15): RCAB(
          (body): Sequential(
            (0): Conv2d(64, 64, kernel_size=(3, 3), stride=(1, 1), padding=(1, 1))
            (1): ReLU(inplace=True)
            (2): Conv2d(64, 64, kernel_size=(3, 3), stride=(1, 1), padding=(1, 1))
            (3): CALayer(
              (avg_pool): AdaptiveAvgPool2d(output_size=1)
              (conv_du): Sequential(
                (0): Conv2d(64, 4, kernel_size=(1, 1), stride=(1, 1))
                (1): ReLU(inplace=True)
                (2): Conv2d(4, 64, kernel_size=(1, 1), stride=(1, 1))
                (3): Sigmoid()
              )
            )
          )
        )
        (16): RCAB(
          (body): Sequential(
            (0): Conv2d(64, 64, kernel_size=(3, 3), stride=(1, 1), padding=(1, 1))
            (1): ReLU(inplace=True)
            (2): Conv2d(64, 64, kernel_size=(3, 3), stride=(1, 1), padding=(1, 1))
            (3): CALayer(
              (avg_pool): AdaptiveAvgPool2d(output_size=1)
              (conv_du): Sequential(
                (0): Conv2d(64, 4, kernel_size=(1, 1), stride=(1, 1))
                (1): ReLU(inplace=True)
                (2): Conv2d(4, 64, kernel_size=(1, 1), stride=(1, 1))
                (3): Sigmoid()
              )
            )
          )
        )
        (17): RCAB(
          (body): Sequential(
            (0): Conv2d(64, 64, kernel_size=(3, 3), stride=(1, 1), padding=(1, 1))
            (1): ReLU(inplace=True)
            (2): Conv2d(64, 64, kernel_size=(3, 3), stride=(1, 1), padding=(1, 1))
            (3): CALayer(
              (avg_pool): AdaptiveAvgPool2d(output_size=1)
              (conv_du): Sequential(
                (0): Conv2d(64, 4, kernel_size=(1, 1), stride=(1, 1))
                (1): ReLU(inplace=True)
                (2): Conv2d(4, 64, kernel_size=(1, 1), stride=(1, 1))
                (3): Sigmoid()
              )
            )
          )
        )
        (18): RCAB(
          (body): Sequential(
            (0): Conv2d(64, 64, kernel_size=(3, 3), stride=(1, 1), padding=(1, 1))
            (1): ReLU(inplace=True)
            (2): Conv2d(64, 64, kernel_size=(3, 3), stride=(1, 1), padding=(1, 1))
            (3): CALayer(
              (avg_pool): AdaptiveAvgPool2d(output_size=1)
              (conv_du): Sequential(
                (0): Conv2d(64, 4, kernel_size=(1, 1), stride=(1, 1))
                (1): ReLU(inplace=True)
                (2): Conv2d(4, 64, kernel_size=(1, 1), stride=(1, 1))
                (3): Sigmoid()
              )
            )
          )
        )
        (19): RCAB(
          (body): Sequential(
            (0): Conv2d(64, 64, kernel_size=(3, 3), stride=(1, 1), padding=(1, 1))
            (1): ReLU(inplace=True)
            (2): Conv2d(64, 64, kernel_size=(3, 3), stride=(1, 1), padding=(1, 1))
            (3): CALayer(
              (avg_pool): AdaptiveAvgPool2d(output_size=1)
              (conv_du): Sequential(
                (0): Conv2d(64, 4, kernel_size=(1, 1), stride=(1, 1))
                (1): ReLU(inplace=True)
                (2): Conv2d(4, 64, kernel_size=(1, 1), stride=(1, 1))
                (3): Sigmoid()
              )
            )
          )
        )
        (20): RCAB(
          (body): Sequential(
            (0): Conv2d(64, 64, kernel_size=(3, 3), stride=(1, 1), padding=(1, 1))
            (1): ReLU(inplace=True)
            (2): Conv2d(64, 64, kernel_size=(3, 3), stride=(1, 1), padding=(1, 1))
            (3): CALayer(
              (avg_pool): AdaptiveAvgPool2d(output_size=1)
              (conv_du): Sequential(
                (0): Conv2d(64, 4, kernel_size=(1, 1), stride=(1, 1))
                (1): ReLU(inplace=True)
                (2): Conv2d(4, 64, kernel_size=(1, 1), stride=(1, 1))
                (3): Sigmoid()
              )
            )
          )
        )
        (21): RCAB(
          (body): Sequential(
            (0): Conv2d(64, 64, kernel_size=(3, 3), stride=(1, 1), padding=(1, 1))
            (1): ReLU(inplace=True)
            (2): Conv2d(64, 64, kernel_size=(3, 3), stride=(1, 1), padding=(1, 1))
            (3): CALayer(
              (avg_pool): AdaptiveAvgPool2d(output_size=1)
              (conv_du): Sequential(
                (0): Conv2d(64, 4, kernel_size=(1, 1), stride=(1, 1))
                (1): ReLU(inplace=True)
                (2): Conv2d(4, 64, kernel_size=(1, 1), stride=(1, 1))
                (3): Sigmoid()
              )
            )
          )
        )
        (22): RCAB(
          (body): Sequential(
            (0): Conv2d(64, 64, kernel_size=(3, 3), stride=(1, 1), padding=(1, 1))
            (1): ReLU(inplace=True)
            (2): Conv2d(64, 64, kernel_size=(3, 3), stride=(1, 1), padding=(1, 1))
            (3): CALayer(
              (avg_pool): AdaptiveAvgPool2d(output_size=1)
              (conv_du): Sequential(
                (0): Conv2d(64, 4, kernel_size=(1, 1), stride=(1, 1))
                (1): ReLU(inplace=True)
                (2): Conv2d(4, 64, kernel_size=(1, 1), stride=(1, 1))
                (3): Sigmoid()
              )
            )
          )
        )
        (23): RCAB(
          (body): Sequential(
            (0): Conv2d(64, 64, kernel_size=(3, 3), stride=(1, 1), padding=(1, 1))
            (1): ReLU(inplace=True)
            (2): Conv2d(64, 64, kernel_size=(3, 3), stride=(1, 1), padding=(1, 1))
            (3): CALayer(
              (avg_pool): AdaptiveAvgPool2d(output_size=1)
              (conv_du): Sequential(
                (0): Conv2d(64, 4, kernel_size=(1, 1), stride=(1, 1))
                (1): ReLU(inplace=True)
                (2): Conv2d(4, 64, kernel_size=(1, 1), stride=(1, 1))
                (3): Sigmoid()
              )
            )
          )
        )
        (24): RCAB(
          (body): Sequential(
            (0): Conv2d(64, 64, kernel_size=(3, 3), stride=(1, 1), padding=(1, 1))
            (1): ReLU(inplace=True)
            (2): Conv2d(64, 64, kernel_size=(3, 3), stride=(1, 1), padding=(1, 1))
            (3): CALayer(
              (avg_pool): AdaptiveAvgPool2d(output_size=1)
              (conv_du): Sequential(
                (0): Conv2d(64, 4, kernel_size=(1, 1), stride=(1, 1))
                (1): ReLU(inplace=True)
                (2): Conv2d(4, 64, kernel_size=(1, 1), stride=(1, 1))
                (3): Sigmoid()
              )
            )
          )
        )
        (25): RCAB(
          (body): Sequential(
            (0): Conv2d(64, 64, kernel_size=(3, 3), stride=(1, 1), padding=(1, 1))
            (1): ReLU(inplace=True)
            (2): Conv2d(64, 64, kernel_size=(3, 3), stride=(1, 1), padding=(1, 1))
            (3): CALayer(
              (avg_pool): AdaptiveAvgPool2d(output_size=1)
              (conv_du): Sequential(
                (0): Conv2d(64, 4, kernel_size=(1, 1), stride=(1, 1))
                (1): ReLU(inplace=True)
                (2): Conv2d(4, 64, kernel_size=(1, 1), stride=(1, 1))
                (3): Sigmoid()
              )
            )
          )
        )
        (26): RCAB(
          (body): Sequential(
            (0): Conv2d(64, 64, kernel_size=(3, 3), stride=(1, 1), padding=(1, 1))
            (1): ReLU(inplace=True)
            (2): Conv2d(64, 64, kernel_size=(3, 3), stride=(1, 1), padding=(1, 1))
            (3): CALayer(
              (avg_pool): AdaptiveAvgPool2d(output_size=1)
              (conv_du): Sequential(
                (0): Conv2d(64, 4, kernel_size=(1, 1), stride=(1, 1))
                (1): ReLU(inplace=True)
                (2): Conv2d(4, 64, kernel_size=(1, 1), stride=(1, 1))
                (3): Sigmoid()
              )
            )
          )
        )
        (27): RCAB(
          (body): Sequential(
            (0): Conv2d(64, 64, kernel_size=(3, 3), stride=(1, 1), padding=(1, 1))
            (1): ReLU(inplace=True)
            (2): Conv2d(64, 64, kernel_size=(3, 3), stride=(1, 1), padding=(1, 1))
            (3): CALayer(
              (avg_pool): AdaptiveAvgPool2d(output_size=1)
              (conv_du): Sequential(
                (0): Conv2d(64, 4, kernel_size=(1, 1), stride=(1, 1))
                (1): ReLU(inplace=True)
                (2): Conv2d(4, 64, kernel_size=(1, 1), stride=(1, 1))
                (3): Sigmoid()
              )
            )
          )
        )
        (28): RCAB(
          (body): Sequential(
            (0): Conv2d(64, 64, kernel_size=(3, 3), stride=(1, 1), padding=(1, 1))
            (1): ReLU(inplace=True)
            (2): Conv2d(64, 64, kernel_size=(3, 3), stride=(1, 1), padding=(1, 1))
            (3): CALayer(
              (avg_pool): AdaptiveAvgPool2d(output_size=1)
              (conv_du): Sequential(
                (0): Conv2d(64, 4, kernel_size=(1, 1), stride=(1, 1))
                (1): ReLU(inplace=True)
                (2): Conv2d(4, 64, kernel_size=(1, 1), stride=(1, 1))
                (3): Sigmoid()
              )
            )
          )
        )
        (29): RCAB(
          (body): Sequential(
            (0): Conv2d(64, 64, kernel_size=(3, 3), stride=(1, 1), padding=(1, 1))
            (1): ReLU(inplace=True)
            (2): Conv2d(64, 64, kernel_size=(3, 3), stride=(1, 1), padding=(1, 1))
            (3): CALayer(
              (avg_pool): AdaptiveAvgPool2d(output_size=1)
              (conv_du): Sequential(
                (0): Conv2d(64, 4, kernel_size=(1, 1), stride=(1, 1))
                (1): ReLU(inplace=True)
                (2): Conv2d(4, 64, kernel_size=(1, 1), stride=(1, 1))
                (3): Sigmoid()
              )
            )
          )
        )
        (30): Upsampler(
          (0): Conv2d(64, 256, kernel_size=(3, 3), stride=(1, 1), padding=(1, 1))
          (1): PixelShuffle(upscale_factor=2)
        )
        (31): Conv2d(64, 32, kernel_size=(1, 1), stride=(1, 1))
      )
      (1): Sequential(
        (0): RCAB(
          (body): Sequential(
            (0): Conv2d(64, 64, kernel_size=(3, 3), stride=(1, 1), padding=(1, 1))
            (1): ReLU(inplace=True)
            (2): Conv2d(64, 64, kernel_size=(3, 3), stride=(1, 1), padding=(1, 1))
            (3): CALayer(
              (avg_pool): AdaptiveAvgPool2d(output_size=1)
              (conv_du): Sequential(
                (0): Conv2d(64, 4, kernel_size=(1, 1), stride=(1, 1))
                (1): ReLU(inplace=True)
                (2): Conv2d(4, 64, kernel_size=(1, 1), stride=(1, 1))
                (3): Sigmoid()
              )
            )
          )
        )
        (1): RCAB(
          (body): Sequential(
            (0): Conv2d(64, 64, kernel_size=(3, 3), stride=(1, 1), padding=(1, 1))
            (1): ReLU(inplace=True)
            (2): Conv2d(64, 64, kernel_size=(3, 3), stride=(1, 1), padding=(1, 1))
            (3): CALayer(
              (avg_pool): AdaptiveAvgPool2d(output_size=1)
              (conv_du): Sequential(
                (0): Conv2d(64, 4, kernel_size=(1, 1), stride=(1, 1))
                (1): ReLU(inplace=True)
                (2): Conv2d(4, 64, kernel_size=(1, 1), stride=(1, 1))
                (3): Sigmoid()
              )
            )
          )
        )
        (2): RCAB(
          (body): Sequential(
            (0): Conv2d(64, 64, kernel_size=(3, 3), stride=(1, 1), padding=(1, 1))
            (1): ReLU(inplace=True)
            (2): Conv2d(64, 64, kernel_size=(3, 3), stride=(1, 1), padding=(1, 1))
            (3): CALayer(
              (avg_pool): AdaptiveAvgPool2d(output_size=1)
              (conv_du): Sequential(
                (0): Conv2d(64, 4, kernel_size=(1, 1), stride=(1, 1))
                (1): ReLU(inplace=True)
                (2): Conv2d(4, 64, kernel_size=(1, 1), stride=(1, 1))
                (3): Sigmoid()
              )
            )
          )
        )
        (3): RCAB(
          (body): Sequential(
            (0): Conv2d(64, 64, kernel_size=(3, 3), stride=(1, 1), padding=(1, 1))
            (1): ReLU(inplace=True)
            (2): Conv2d(64, 64, kernel_size=(3, 3), stride=(1, 1), padding=(1, 1))
            (3): CALayer(
              (avg_pool): AdaptiveAvgPool2d(output_size=1)
              (conv_du): Sequential(
                (0): Conv2d(64, 4, kernel_size=(1, 1), stride=(1, 1))
                (1): ReLU(inplace=True)
                (2): Conv2d(4, 64, kernel_size=(1, 1), stride=(1, 1))
                (3): Sigmoid()
              )
            )
          )
        )
        (4): RCAB(
          (body): Sequential(
            (0): Conv2d(64, 64, kernel_size=(3, 3), stride=(1, 1), padding=(1, 1))
            (1): ReLU(inplace=True)
            (2): Conv2d(64, 64, kernel_size=(3, 3), stride=(1, 1), padding=(1, 1))
            (3): CALayer(
              (avg_pool): AdaptiveAvgPool2d(output_size=1)
              (conv_du): Sequential(
                (0): Conv2d(64, 4, kernel_size=(1, 1), stride=(1, 1))
                (1): ReLU(inplace=True)
                (2): Conv2d(4, 64, kernel_size=(1, 1), stride=(1, 1))
                (3): Sigmoid()
              )
            )
          )
        )
        (5): RCAB(
          (body): Sequential(
            (0): Conv2d(64, 64, kernel_size=(3, 3), stride=(1, 1), padding=(1, 1))
            (1): ReLU(inplace=True)
            (2): Conv2d(64, 64, kernel_size=(3, 3), stride=(1, 1), padding=(1, 1))
            (3): CALayer(
              (avg_pool): AdaptiveAvgPool2d(output_size=1)
              (conv_du): Sequential(
                (0): Conv2d(64, 4, kernel_size=(1, 1), stride=(1, 1))
                (1): ReLU(inplace=True)
                (2): Conv2d(4, 64, kernel_size=(1, 1), stride=(1, 1))
                (3): Sigmoid()
              )
            )
          )
        )
        (6): RCAB(
          (body): Sequential(
            (0): Conv2d(64, 64, kernel_size=(3, 3), stride=(1, 1), padding=(1, 1))
            (1): ReLU(inplace=True)
            (2): Conv2d(64, 64, kernel_size=(3, 3), stride=(1, 1), padding=(1, 1))
            (3): CALayer(
              (avg_pool): AdaptiveAvgPool2d(output_size=1)
              (conv_du): Sequential(
                (0): Conv2d(64, 4, kernel_size=(1, 1), stride=(1, 1))
                (1): ReLU(inplace=True)
                (2): Conv2d(4, 64, kernel_size=(1, 1), stride=(1, 1))
                (3): Sigmoid()
              )
            )
          )
        )
        (7): RCAB(
          (body): Sequential(
            (0): Conv2d(64, 64, kernel_size=(3, 3), stride=(1, 1), padding=(1, 1))
            (1): ReLU(inplace=True)
            (2): Conv2d(64, 64, kernel_size=(3, 3), stride=(1, 1), padding=(1, 1))
            (3): CALayer(
              (avg_pool): AdaptiveAvgPool2d(output_size=1)
              (conv_du): Sequential(
                (0): Conv2d(64, 4, kernel_size=(1, 1), stride=(1, 1))
                (1): ReLU(inplace=True)
                (2): Conv2d(4, 64, kernel_size=(1, 1), stride=(1, 1))
                (3): Sigmoid()
              )
            )
          )
        )
        (8): RCAB(
          (body): Sequential(
            (0): Conv2d(64, 64, kernel_size=(3, 3), stride=(1, 1), padding=(1, 1))
            (1): ReLU(inplace=True)
            (2): Conv2d(64, 64, kernel_size=(3, 3), stride=(1, 1), padding=(1, 1))
            (3): CALayer(
              (avg_pool): AdaptiveAvgPool2d(output_size=1)
              (conv_du): Sequential(
                (0): Conv2d(64, 4, kernel_size=(1, 1), stride=(1, 1))
                (1): ReLU(inplace=True)
                (2): Conv2d(4, 64, kernel_size=(1, 1), stride=(1, 1))
                (3): Sigmoid()
              )
            )
          )
        )
        (9): RCAB(
          (body): Sequential(
            (0): Conv2d(64, 64, kernel_size=(3, 3), stride=(1, 1), padding=(1, 1))
            (1): ReLU(inplace=True)
            (2): Conv2d(64, 64, kernel_size=(3, 3), stride=(1, 1), padding=(1, 1))
            (3): CALayer(
              (avg_pool): AdaptiveAvgPool2d(output_size=1)
              (conv_du): Sequential(
                (0): Conv2d(64, 4, kernel_size=(1, 1), stride=(1, 1))
                (1): ReLU(inplace=True)
                (2): Conv2d(4, 64, kernel_size=(1, 1), stride=(1, 1))
                (3): Sigmoid()
              )
            )
          )
        )
        (10): RCAB(
          (body): Sequential(
            (0): Conv2d(64, 64, kernel_size=(3, 3), stride=(1, 1), padding=(1, 1))
            (1): ReLU(inplace=True)
            (2): Conv2d(64, 64, kernel_size=(3, 3), stride=(1, 1), padding=(1, 1))
            (3): CALayer(
              (avg_pool): AdaptiveAvgPool2d(output_size=1)
              (conv_du): Sequential(
                (0): Conv2d(64, 4, kernel_size=(1, 1), stride=(1, 1))
                (1): ReLU(inplace=True)
                (2): Conv2d(4, 64, kernel_size=(1, 1), stride=(1, 1))
                (3): Sigmoid()
              )
            )
          )
        )
        (11): RCAB(
          (body): Sequential(
            (0): Conv2d(64, 64, kernel_size=(3, 3), stride=(1, 1), padding=(1, 1))
            (1): ReLU(inplace=True)
            (2): Conv2d(64, 64, kernel_size=(3, 3), stride=(1, 1), padding=(1, 1))
            (3): CALayer(
…
              (avg_pool): AdaptiveAvgPool2d(output_size=1)
              (conv_du): Sequential(
                (0): Conv2d(64, 4, kernel_size=(1, 1), stride=(1, 1))
                (1): ReLU(inplace=True)
                (2): Conv2d(4, 64, kernel_size=(1, 1), stride=(1, 1))
                (3): Sigmoid()
              )
            )
          )
        )
        (16): RCAB(
          (body): Sequential(
            (0): Conv2d(64, 64, kernel_size=(3, 3), stride=(1, 1), padding=(1, 1))
            (1): ReLU(inplace=True)
            (2): Conv2d(64, 64, kernel_size=(3, 3), stride=(1, 1), padding=(1, 1))
            (3): CALayer(
              (avg_pool): AdaptiveAvgPool2d(output_size=1)
              (conv_du): Sequential(
                (0): Conv2d(64, 4, kernel_size=(1, 1), stride=(1, 1))
                (1): ReLU(inplace=True)
                (2): Conv2d(4, 64, kernel_size=(1, 1), stride=(1, 1))
                (3): Sigmoid()
              )
            )
          )
        )
        (17): RCAB(
          (body): Sequential(
            (0): Conv2d(64, 64, kernel_size=(3, 3), stride=(1, 1), padding=(1, 1))
            (1): ReLU(inplace=True)
            (2): Conv2d(64, 64, kernel_size=(3, 3), stride=(1, 1), padding=(1, 1))
            (3): CALayer(
              (avg_pool): AdaptiveAvgPool2d(output_size=1)
              (conv_du): Sequential(
                (0): Conv2d(64, 4, kernel_size=(1, 1), stride=(1, 1))
                (1): ReLU(inplace=True)
                (2): Conv2d(4, 64, kernel_size=(1, 1), stride=(1, 1))
                (3): Sigmoid()
              )
            )
          )
        )
        (18): RCAB(
          (body): Sequential(
            (0): Conv2d(64, 64, kernel_size=(3, 3), stride=(1, 1), padding=(1, 1))
            (1): ReLU(inplace=True)
            (2): Conv2d(64, 64, kernel_size=(3, 3), stride=(1, 1), padding=(1, 1))
            (3): CALayer(
              (avg_pool): AdaptiveAvgPool2d(output_size=1)
              (conv_du): Sequential(
                (0): Conv2d(64, 4, kernel_size=(1, 1), stride=(1, 1))
                (1): ReLU(inplace=True)
                (2): Conv2d(4, 64, kernel_size=(1, 1), stride=(1, 1))
                (3): Sigmoid()
              )
            )
          )
        )
        (19): RCAB(
          (body): Sequential(
            (0): Conv2d(64, 64, kernel_size=(3, 3), stride=(1, 1), padding=(1, 1))
            (1): ReLU(inplace=True)
            (2): Conv2d(64, 64, kernel_size=(3, 3), stride=(1, 1), padding=(1, 1))
            (3): CALayer(
              (avg_pool): AdaptiveAvgPool2d(output_size=1)
              (conv_du): Sequential(
                (0): Conv2d(64, 4, kernel_size=(1, 1), stride=(1, 1))
                (1): ReLU(inplace=True)
                (2): Conv2d(4, 64, kernel_size=(1, 1), stride=(1, 1))
                (3): Sigmoid()
              )
            )
          )
        )
        (20): RCAB(
          (body): Sequential(
            (0): Conv2d(64, 64, kernel_size=(3, 3), stride=(1, 1), padding=(1, 1))
            (1): ReLU(inplace=True)
            (2): Conv2d(64, 64, kernel_size=(3, 3), stride=(1, 1), padding=(1, 1))
            (3): CALayer(
              (avg_pool): AdaptiveAvgPool2d(output_size=1)
              (conv_du): Sequential(
                (0): Conv2d(64, 4, kernel_size=(1, 1), stride=(1, 1))
                (1): ReLU(inplace=True)
                (2): Conv2d(4, 64, kernel_size=(1, 1), stride=(1, 1))
                (3): Sigmoid()
              )
            )
          )
        )
        (21): RCAB(
          (body): Sequential(
            (0): Conv2d(64, 64, kernel_size=(3, 3), stride=(1, 1), padding=(1, 1))
            (1): ReLU(inplace=True)
            (2): Conv2d(64, 64, kernel_size=(3, 3), stride=(1, 1), padding=(1, 1))
            (3): CALayer(
              (avg_pool): AdaptiveAvgPool2d(output_size=1)
              (conv_du): Sequential(
                (0): Conv2d(64, 4, kernel_size=(1, 1), stride=(1, 1))
                (1): ReLU(inplace=True)
                (2): Conv2d(4, 64, kernel_size=(1, 1), stride=(1, 1))
                (3): Sigmoid()
              )
            )
          )
        )
        (22): RCAB(
          (body): Sequential(
            (0): Conv2d(64, 64, kernel_size=(3, 3), stride=(1, 1), padding=(1, 1))
            (1): ReLU(inplace=True)
            (2): Conv2d(64, 64, kernel_size=(3, 3), stride=(1, 1), padding=(1, 1))
            (3): CALayer(
              (avg_pool): AdaptiveAvgPool2d(output_size=1)
              (conv_du): Sequential(
                (0): Conv2d(64, 4, kernel_size=(1, 1), stride=(1, 1))
                (1): ReLU(inplace=True)
                (2): Conv2d(4, 64, kernel_size=(1, 1), stride=(1, 1))
                (3): Sigmoid()
              )
            )
          )
        )
        (23): RCAB(
          (body): Sequential(
            (0): Conv2d(64, 64, kernel_size=(3, 3), stride=(1, 1), padding=(1, 1))
            (1): ReLU(inplace=True)
            (2): Conv2d(64, 64, kernel_size=(3, 3), stride=(1, 1), padding=(1, 1))
            (3): CALayer(
              (avg_pool): AdaptiveAvgPool2d(output_size=1)
              (conv_du): Sequential(
                (0): Conv2d(64, 4, kernel_size=(1, 1), stride=(1, 1))
                (1): ReLU(inplace=True)
                (2): Conv2d(4, 64, kernel_size=(1, 1), stride=(1, 1))
                (3): Sigmoid()
              )
            )
          )
        )
        (24): RCAB(
          (body): Sequential(
            (0): Conv2d(64, 64, kernel_size=(3, 3), stride=(1, 1), padding=(1, 1))
            (1): ReLU(inplace=True)
            (2): Conv2d(64, 64, kernel_size=(3, 3), stride=(1, 1), padding=(1, 1))
            (3): CALayer(
              (avg_pool): AdaptiveAvgPool2d(output_size=1)
              (conv_du): Sequential(
                (0): Conv2d(64, 4, kernel_size=(1, 1), stride=(1, 1))
                (1): ReLU(inplace=True)
                (2): Conv2d(4, 64, kernel_size=(1, 1), stride=(1, 1))
                (3): Sigmoid()
              )
            )
          )
        )
        (25): RCAB(
          (body): Sequential(
            (0): Conv2d(64, 64, kernel_size=(3, 3), stride=(1, 1), padding=(1, 1))
            (1): ReLU(inplace=True)
            (2): Conv2d(64, 64, kernel_size=(3, 3), stride=(1, 1), padding=(1, 1))
            (3): CALayer(
              (avg_pool): AdaptiveAvgPool2d(output_size=1)
              (conv_du): Sequential(
                (0): Conv2d(64, 4, kernel_size=(1, 1), stride=(1, 1))
                (1): ReLU(inplace=True)
                (2): Conv2d(4, 64, kernel_size=(1, 1), stride=(1, 1))
                (3): Sigmoid()
              )
            )
          )
        )
        (26): RCAB(
          (body): Sequential(
            (0): Conv2d(64, 64, kernel_size=(3, 3), stride=(1, 1), padding=(1, 1))
            (1): ReLU(inplace=True)
            (2): Conv2d(64, 64, kernel_size=(3, 3), stride=(1, 1), padding=(1, 1))
            (3): CALayer(
              (avg_pool): AdaptiveAvgPool2d(output_size=1)
              (conv_du): Sequential(
                (0): Conv2d(64, 4, kernel_size=(1, 1), stride=(1, 1))
                (1): ReLU(inplace=True)
                (2): Conv2d(4, 64, kernel_size=(1, 1), stride=(1, 1))
                (3): Sigmoid()
              )
            )
          )
        )
        (27): RCAB(
          (body): Sequential(
            (0): Conv2d(64, 64, kernel_size=(3, 3), stride=(1, 1), padding=(1, 1))
            (1): ReLU(inplace=True)
            (2): Conv2d(64, 64, kernel_size=(3, 3), stride=(1, 1), padding=(1, 1))
            (3): CALayer(
              (avg_pool): AdaptiveAvgPool2d(output_size=1)
              (conv_du): Sequential(
                (0): Conv2d(64, 4, kernel_size=(1, 1), stride=(1, 1))
                (1): ReLU(inplace=True)
                (2): Conv2d(4, 64, kernel_size=(1, 1), stride=(1, 1))
                (3): Sigmoid()
              )
            )
          )
        )
        (28): RCAB(
          (body): Sequential(
            (0): Conv2d(64, 64, kernel_size=(3, 3), stride=(1, 1), padding=(1, 1))
            (1): ReLU(inplace=True)
            (2): Conv2d(64, 64, kernel_size=(3, 3), stride=(1, 1), padding=(1, 1))
            (3): CALayer(
              (avg_pool): AdaptiveAvgPool2d(output_size=1)
              (conv_du): Sequential(
                (0): Conv2d(64, 4, kernel_size=(1, 1), stride=(1, 1))
                (1): ReLU(inplace=True)
                (2): Conv2d(4, 64, kernel_size=(1, 1), stride=(1, 1))
                (3): Sigmoid()
              )
            )
          )
        )
        (29): RCAB(
          (body): Sequential(
            (0): Conv2d(64, 64, kernel_size=(3, 3), stride=(1, 1), padding=(1, 1))
            (1): ReLU(inplace=True)
            (2): Conv2d(64, 64, kernel_size=(3, 3), stride=(1, 1), padding=(1, 1))
            (3): CALayer(
              (avg_pool): AdaptiveAvgPool2d(output_size=1)
              (conv_du): Sequential(
                (0): Conv2d(64, 4, kernel_size=(1, 1), stride=(1, 1))
                (1): ReLU(inplace=True)
                (2): Conv2d(4, 64, kernel_size=(1, 1), stride=(1, 1))
                (3): Sigmoid()
              )
            )
          )
        )
        (30): Upsampler(
          (0): Conv2d(64, 256, kernel_size=(3, 3), stride=(1, 1), padding=(1, 1))
          (1): PixelShuffle(upscale_factor=2)
        )
        (31): Conv2d(64, 32, kernel_size=(1, 1), stride=(1, 1))
      )
      (1): Sequential(
        (0): RCAB(
          (body): Sequential(
            (0): Conv2d(64, 64, kernel_size=(3, 3), stride=(1, 1), padding=(1, 1))
            (1): ReLU(inplace=True)
            (2): Conv2d(64, 64, kernel_size=(3, 3), stride=(1, 1), padding=(1, 1))
            (3): CALayer(
              (avg_pool): AdaptiveAvgPool2d(output_size=1)
              (conv_du): Sequential(
                (0): Conv2d(64, 4, kernel_size=(1, 1), stride=(1, 1))
                (1): ReLU(inplace=True)
                (2): Conv2d(4, 64, kernel_size=(1, 1), stride=(1, 1))
                (3): Sigmoid()
              )
            )
          )
        )
        (1): RCAB(
          (body): Sequential(
            (0): Conv2d(64, 64, kernel_size=(3, 3), stride=(1, 1), padding=(1, 1))
            (1): ReLU(inplace=True)
            (2): Conv2d(64, 64, kernel_size=(3, 3), stride=(1, 1), padding=(1, 1))
            (3): CALayer(
              (avg_pool): AdaptiveAvgPool2d(output_size=1)
              (conv_du): Sequential(
                (0): Conv2d(64, 4, kernel_size=(1, 1), stride=(1, 1))
                (1): ReLU(inplace=True)
                (2): Conv2d(4, 64, kernel_size=(1, 1), stride=(1, 1))
                (3): Sigmoid()
              )
            )
          )
        )
        (2): RCAB(
          (body): Sequential(
            (0): Conv2d(64, 64, kernel_size=(3, 3), stride=(1, 1), padding=(1, 1))
            (1): ReLU(inplace=True)
            (2): Conv2d(64, 64, kernel_size=(3, 3), stride=(1, 1), padding=(1, 1))
            (3): CALayer(
              (avg_pool): AdaptiveAvgPool2d(output_size=1)
              (conv_du): Sequential(
                (0): Conv2d(64, 4, kernel_size=(1, 1), stride=(1, 1))
                (1): ReLU(inplace=True)
                (2): Conv2d(4, 64, kernel_size=(1, 1), stride=(1, 1))
                (3): Sigmoid()
              )
            )
          )
        )
        (3): RCAB(
          (body): Sequential(
            (0): Conv2d(64, 64, kernel_size=(3, 3), stride=(1, 1), padding=(1, 1))
            (1): ReLU(inplace=True)
            (2): Conv2d(64, 64, kernel_size=(3, 3), stride=(1, 1), padding=(1, 1))
            (3): CALayer(
              (avg_pool): AdaptiveAvgPool2d(output_size=1)
              (conv_du): Sequential(
                (0): Conv2d(64, 4, kernel_size=(1, 1), stride=(1, 1))
                (1): ReLU(inplace=True)
                (2): Conv2d(4, 64, kernel_size=(1, 1), stride=(1, 1))
                (3): Sigmoid()
              )
            )
          )
        )
        (4): RCAB(
          (body): Sequential(
            (0): Conv2d(64, 64, kernel_size=(3, 3), stride=(1, 1), padding=(1, 1))
            (1): ReLU(inplace=True)
            (2): Conv2d(64, 64, kernel_size=(3, 3), stride=(1, 1), padding=(1, 1))
            (3): CALayer(
              (avg_pool): AdaptiveAvgPool2d(output_size=1)
              (conv_du): Sequential(
                (0): Conv2d(64, 4, kernel_size=(1, 1), stride=(1, 1))
                (1): ReLU(inplace=True)
                (2): Conv2d(4, 64, kernel_size=(1, 1), stride=(1, 1))
                (3): Sigmoid()
              )
            )
          )
        )
        (5): RCAB(
          (body): Sequential(
            (0): Conv2d(64, 64, kernel_size=(3, 3), stride=(1, 1), padding=(1, 1))
            (1): ReLU(inplace=True)
            (2): Conv2d(64, 64, kernel_size=(3, 3), stride=(1, 1), padding=(1, 1))
            (3): CALayer(
              (avg_pool): AdaptiveAvgPool2d(output_size=1)
              (conv_du): Sequential(
                (0): Conv2d(64, 4, kernel_size=(1, 1), stride=(1, 1))
                (1): ReLU(inplace=True)
                (2): Conv2d(4, 64, kernel_size=(1, 1), stride=(1, 1))
                (3): Sigmoid()
              )
            )
          )
        )
        (6): RCAB(
          (body): Sequential(
            (0): Conv2d(64, 64, kernel_size=(3, 3), stride=(1, 1), padding=(1, 1))
            (1): ReLU(inplace=True)
            (2): Conv2d(64, 64, kernel_size=(3, 3), stride=(1, 1), padding=(1, 1))
            (3): CALayer(
              (avg_pool): AdaptiveAvgPool2d(output_size=1)
              (conv_du): Sequential(
                (0): Conv2d(64, 4, kernel_size=(1, 1), stride=(1, 1))
                (1): ReLU(inplace=True)
                (2): Conv2d(4, 64, kernel_size=(1, 1), stride=(1, 1))
                (3): Sigmoid()
              )
            )
          )
        )
        (7): RCAB(
          (body): Sequential(
            (0): Conv2d(64, 64, kernel_size=(3, 3), stride=(1, 1), padding=(1, 1))
            (1): ReLU(inplace=True)
            (2): Conv2d(64, 64, kernel_size=(3, 3), stride=(1, 1), padding=(1, 1))
            (3): CALayer(
              (avg_pool): AdaptiveAvgPool2d(output_size=1)
              (conv_du): Sequential(
                (0): Conv2d(64, 4, kernel_size=(1, 1), stride=(1, 1))
                (1): ReLU(inplace=True)
                (2): Conv2d(4, 64, kernel_size=(1, 1), stride=(1, 1))
                (3): Sigmoid()
              )
            )
          )
        )
        (8): RCAB(
          (body): Sequential(
            (0): Conv2d(64, 64, kernel_size=(3, 3), stride=(1, 1), padding=(1, 1))
            (1): ReLU(inplace=True)
            (2): Conv2d(64, 64, kernel_size=(3, 3), stride=(1, 1), padding=(1, 1))
            (3): CALayer(
              (avg_pool): AdaptiveAvgPool2d(output_size=1)
              (conv_du): Sequential(
                (0): Conv2d(64, 4, kernel_size=(1, 1), stride=(1, 1))
                (1): ReLU(inplace=True)
                (2): Conv2d(4, 64, kernel_size=(1, 1), stride=(1, 1))
                (3): Sigmoid()
              )
            )
          )
        )
        (9): RCAB(
          (body): Sequential(
            (0): Conv2d(64, 64, kernel_size=(3, 3), stride=(1, 1), padding=(1, 1))
            (1): ReLU(inplace=True)
            (2): Conv2d(64, 64, kernel_size=(3, 3), stride=(1, 1), padding=(1, 1))
            (3): CALayer(
              (avg_pool): AdaptiveAvgPool2d(output_size=1)
              (conv_du): Sequential(
                (0): Conv2d(64, 4, kernel_size=(1, 1), stride=(1, 1))
                (1): ReLU(inplace=True)
                (2): Conv2d(4, 64, kernel_size=(1, 1), stride=(1, 1))
                (3): Sigmoid()
              )
            )
          )
        )
        (10): RCAB(
          (body): Sequential(
            (0): Conv2d(64, 64, kernel_size=(3, 3), stride=(1, 1), padding=(1, 1))
            (1): ReLU(inplace=True)
            (2): Conv2d(64, 64, kernel_size=(3, 3), stride=(1, 1), padding=(1, 1))
            (3): CALayer(
              (avg_pool): AdaptiveAvgPool2d(output_size=1)
              (conv_du): Sequential(
                (0): Conv2d(64, 4, kernel_size=(1, 1), stride=(1, 1))
                (1): ReLU(inplace=True)
                (2): Conv2d(4, 64, kernel_size=(1, 1), stride=(1, 1))
                (3): Sigmoid()
              )
            )
          )
        )
        (11): RCAB(
          (body): Sequential(
            (0): Conv2d(64, 64, kernel_size=(3, 3), stride=(1, 1), padding=(1, 1))
            (1): ReLU(inplace=True)
            (2): Conv2d(64, 64, kernel_size=(3, 3), stride=(1, 1), padding=(1, 1))
            (3): CALayer(
              (avg_pool): AdaptiveAvgPool2d(output_size=1)
              (conv_du): Sequential(
                (0): Conv2d(64, 4, kernel_size=(1, 1), stride=(1, 1))
                (1): ReLU(inplace=True)
                (2): Conv2d(4, 64, kernel_size=(1, 1), stride=(1, 1))
                (3): Sigmoid()
              )
            )
          )
        )
        (12): RCAB(
          (body): Sequential(
            (0): Conv2d(64, 64, kernel_size=(3, 3), stride=(1, 1), padding=(1, 1))
            (1): ReLU(inplace=True)
            (2): Conv2d(64, 64, kernel_size=(3, 3), stride=(1, 1), padding=(1, 1))
            (3): CALayer(
              (avg_pool): AdaptiveAvgPool2d(output_size=1)
              (conv_du): Sequential(
                (0): Conv2d(64, 4, kernel_size=(1, 1), stride=(1, 1))
                (1): ReLU(inplace=True)
                (2): Conv2d(4, 64, kernel_size=(1, 1), stride=(1, 1))
                (3): Sigmoid()
              )
            )
          )
        )
        (13): RCAB(
          (body): Sequential(
            (0): Conv2d(64, 64, kernel_size=(3, 3), stride=(1, 1), padding=(1, 1))
            (1): ReLU(inplace=True)
            (2): Conv2d(64, 64, kernel_size=(3, 3), stride=(1, 1), padding=(1, 1))
            (3): CALayer(
              (avg_pool): AdaptiveAvgPool2d(output_size=1)
              (conv_du): Sequential(
                (0): Conv2d(64, 4, kernel_size=(1, 1), stride=(1, 1))
                (1): ReLU(inplace=True)
                (2): Conv2d(4, 64, kernel_size=(1, 1), stride=(1, 1))
                (3): Sigmoid()
              )
            )
          )
        )
        (14): RCAB(
          (body): Sequential(
            (0): Conv2d(64, 64, kernel_size=(3, 3), stride=(1, 1), padding=(1, 1))
            (1): ReLU(inplace=True)
            (2): Conv2d(64, 64, kernel_size=(3, 3), stride=(1, 1), padding=(1, 1))
            (3): CALayer(
              (avg_pool): AdaptiveAvgPool2d(output_size=1)
              (conv_du): Sequential(
                (0): Conv2d(64, 4, kernel_size=(1, 1), stride=(1, 1))
                (1): ReLU(inplace=True)
                (2): Conv2d(4, 64, kernel_size=(1, 1), stride=(1, 1))
                (3): Sigmoid()
              )
            )
          )
        )
        (15): RCAB(
          (body): Sequential(
            (0): Conv2d(64, 64, kernel_size=(3, 3), stride=(1, 1), padding=(1, 1))
            (1): ReLU(inplace=True)
            (2): Conv2d(64, 64, kernel_size=(3, 3), stride=(1, 1), padding=(1, 1))
            (3): CALayer(
              (avg_pool): AdaptiveAvgPool2d(output_size=1)
              (conv_du): Sequential(
                (0): Conv2d(64, 4, kernel_size=(1, 1), stride=(1, 1))
                (1): ReLU(inplace=True)
                (2): Conv2d(4, 64, kernel_size=(1, 1), stride=(1, 1))
                (3): Sigmoid()
              )
            )
          )
        )
        (16): RCAB(
          (body): Sequential(
            (0): Conv2d(64, 64, kernel_size=(3, 3), stride=(1, 1), padding=(1, 1))
            (1): ReLU(inplace=True)
            (2): Conv2d(64, 64, kernel_size=(3, 3), stride=(1, 1), padding=(1, 1))
            (3): CALayer(
              (avg_pool): AdaptiveAvgPool2d(output_size=1)
              (conv_du): Sequential(
                (0): Conv2d(64, 4, kernel_size=(1, 1), stride=(1, 1))
                (1): ReLU(inplace=True)
                (2): Conv2d(4, 64, kernel_size=(1, 1), stride=(1, 1))
                (3): Sigmoid()
              )
            )
          )
        )
        (17): RCAB(
          (body): Sequential(
            (0): Conv2d(64, 64, kernel_size=(3, 3), stride=(1, 1), padding=(1, 1))
            (1): ReLU(inplace=True)
            (2): Conv2d(64, 64, kernel_size=(3, 3), stride=(1, 1), padding=(1, 1))
            (3): CALayer(
              (avg_pool): AdaptiveAvgPool2d(output_size=1)
              (conv_du): Sequential(
                (0): Conv2d(64, 4, kernel_size=(1, 1), stride=(1, 1))
                (1): ReLU(inplace=True)
                (2): Conv2d(4, 64, kernel_size=(1, 1), stride=(1, 1))
                (3): Sigmoid()
              )
            )
          )
        )
        (18): RCAB(
          (body): Sequential(
            (0): Conv2d(64, 64, kernel_size=(3, 3), stride=(1, 1), padding=(1, 1))
            (1): ReLU(inplace=True)
            (2): Conv2d(64, 64, kernel_size=(3, 3), stride=(1, 1), padding=(1, 1))
            (3): CALayer(
              (avg_pool): AdaptiveAvgPool2d(output_size=1)
              (conv_du): Sequential(
                (0): Conv2d(64, 4, kernel_size=(1, 1), stride=(1, 1))
                (1): ReLU(inplace=True)
                (2): Conv2d(4, 64, kernel_size=(1, 1), stride=(1, 1))
                (3): Sigmoid()
              )
            )
          )
        )
        (19): RCAB(
          (body): Sequential(
            (0): Conv2d(64, 64, kernel_size=(3, 3), stride=(1, 1), padding=(1, 1))
            (1): ReLU(inplace=True)
            (2): Conv2d(64, 64, kernel_size=(3, 3), stride=(1, 1), padding=(1, 1))
            (3): CALayer(
              (avg_pool): AdaptiveAvgPool2d(output_size=1)
              (conv_du): Sequential(
                (0): Conv2d(64, 4, kernel_size=(1, 1), stride=(1, 1))
                (1): ReLU(inplace=True)
                (2): Conv2d(4, 64, kernel_size=(1, 1), stride=(1, 1))
                (3): Sigmoid()
              )
            )
          )
        )
        (20): RCAB(
          (body): Sequential(
            (0): Conv2d(64, 64, kernel_size=(3, 3), stride=(1, 1), padding=(1, 1))
            (1): ReLU(inplace=True)
            (2): Conv2d(64, 64, kernel_size=(3, 3), stride=(1, 1), padding=(1, 1))
            (3): CALayer(
              (avg_pool): AdaptiveAvgPool2d(output_size=1)
              (conv_du): Sequential(
                (0): Conv2d(64, 4, kernel_size=(1, 1), stride=(1, 1))
                (1): ReLU(inplace=True)
                (2): Conv2d(4, 64, kernel_size=(1, 1), stride=(1, 1))
                (3): Sigmoid()
              )
            )
          )
        )
        (21): RCAB(
          (body): Sequential(
            (0): Conv2d(64, 64, kernel_size=(3, 3), stride=(1, 1), padding=(1, 1))
            (1): ReLU(inplace=True)
            (2): Conv2d(64, 64, kernel_size=(3, 3), stride=(1, 1), padding=(1, 1))
            (3): CALayer(
              (avg_pool): AdaptiveAvgPool2d(output_size=1)
              (conv_du): Sequential(
                (0): Conv2d(64, 4, kernel_size=(1, 1), stride=(1, 1))
                (1): ReLU(inplace=True)
                (2): Conv2d(4, 64, kernel_size=(1, 1), stride=(1, 1))
                (3): Sigmoid()
              )
            )
          )
        )
        (22): RCAB(
          (body): Sequential(
            (0): Conv2d(64, 64, kernel_size=(3, 3), stride=(1, 1), padding=(1, 1))
            (1): ReLU(inplace=True)
            (2): Conv2d(64, 64, kernel_size=(3, 3), stride=(1, 1), padding=(1, 1))
            (3): CALayer(
              (avg_pool): AdaptiveAvgPool2d(output_size=1)
              (conv_du): Sequential(
                (0): Conv2d(64, 4, kernel_size=(1, 1), stride=(1, 1))
                (1): ReLU(inplace=True)
                (2): Conv2d(4, 64, kernel_size=(1, 1), stride=(1, 1))
                (3): Sigmoid()
              )
            )
          )
        )
        (23): RCAB(
          (body): Sequential(
            (0): Conv2d(64, 64, kernel_size=(3, 3), stride=(1, 1), padding=(1, 1))
            (1): ReLU(inplace=True)
            (2): Conv2d(64, 64, kernel_size=(3, 3), stride=(1, 1), padding=(1, 1))
            (3): CALayer(
              (avg_pool): AdaptiveAvgPool2d(output_size=1)
              (conv_du): Sequential(
                (0): Conv2d(64, 4, kernel_size=(1, 1), stride=(1, 1))
                (1): ReLU(inplace=True)
                (2): Conv2d(4, 64, kernel_size=(1, 1), stride=(1, 1))
                (3): Sigmoid()
              )
            )
          )
        )
        (24): RCAB(
          (body): Sequential(
            (0): Conv2d(64, 64, kernel_size=(3, 3), stride=(1, 1), padding=(1, 1))
            (1): ReLU(inplace=True)
            (2): Conv2d(64, 64, kernel_size=(3, 3), stride=(1, 1), padding=(1, 1))
            (3): CALayer(
              (avg_pool): AdaptiveAvgPool2d(output_size=1)
              (conv_du): Sequential(
                (0): Conv2d(64, 4, kernel_size=(1, 1), stride=(1, 1))
                (1): ReLU(inplace=True)
                (2): Conv2d(4, 64, kernel_size=(1, 1), stride=(1, 1))
                (3): Sigmoid()
              )
            )
          )
        )
        (25): RCAB(
          (body): Sequential(
            (0): Conv2d(64, 64, kernel_size=(3, 3), stride=(1, 1), padding=(1, 1))
            (1): ReLU(inplace=True)
            (2): Conv2d(64, 64, kernel_size=(3, 3), stride=(1, 1), padding=(1, 1))
            (3): CALayer(
              (avg_pool): AdaptiveAvgPool2d(output_size=1)
              (conv_du): Sequential(
                (0): Conv2d(64, 4, kernel_size=(1, 1), stride=(1, 1))
                (1): ReLU(inplace=True)
                (2): Conv2d(4, 64, kernel_size=(1, 1), stride=(1, 1))
                (3): Sigmoid()
              )
            )
          )
        )
        (26): RCAB(
          (body): Sequential(
            (0): Conv2d(64, 64, kernel_size=(3, 3), stride=(1, 1), padding=(1, 1))
            (1): ReLU(inplace=True)
            (2): Conv2d(64, 64, kernel_size=(3, 3), stride=(1, 1), padding=(1, 1))
            (3): CALayer(
              (avg_pool): AdaptiveAvgPool2d(output_size=1)
              (conv_du): Sequential(
                (0): Conv2d(64, 4, kernel_size=(1, 1), stride=(1, 1))
                (1): ReLU(inplace=True)
                (2): Conv2d(4, 64, kernel_size=(1, 1), stride=(1, 1))
                (3): Sigmoid()
              )
            )
          )
        )
        (27): RCAB(
          (body): Sequential(
            (0): Conv2d(64, 64, kernel_size=(3, 3), stride=(1, 1), padding=(1, 1))
            (1): ReLU(inplace=True)
            (2): Conv2d(64, 64, kernel_size=(3, 3), stride=(1, 1), padding=(1, 1))
            (3): CALayer(
              (avg_pool): AdaptiveAvgPool2d(output_size=1)
              (conv_du): Sequential(
                (0): Conv2d(64, 4, kernel_size=(1, 1), stride=(1, 1))
                (1): ReLU(inplace=True)
                (2): Conv2d(4, 64, kernel_size=(1, 1), stride=(1, 1))
                (3): Sigmoid()
              )
            )
          )
        )
        (28): RCAB(
          (body): Sequential(
            (0): Conv2d(64, 64, kernel_size=(3, 3), stride=(1, 1), padding=(1, 1))
            (1): ReLU(inplace=True)
            (2): Conv2d(64, 64, kernel_size=(3, 3), stride=(1, 1), padding=(1, 1))
            (3): CALayer(
              (avg_pool): AdaptiveAvgPool2d(output_size=1)
              (conv_du): Sequential(
                (0): Conv2d(64, 4, kernel_size=(1, 1), stride=(1, 1))
                (1): ReLU(inplace=True)
                (2): Conv2d(4, 64, kernel_size=(1, 1), stride=(1, 1))
                (3): Sigmoid()
              )
            )
          )
        )
        (29): RCAB(
          (body): Sequential(
            (0): Conv2d(64, 64, kernel_size=(3, 3), stride=(1, 1), padding=(1, 1))
            (1): ReLU(inplace=True)
            (2): Conv2d(64, 64, kernel_size=(3, 3), stride=(1, 1), padding=(1, 1))
            (3): CALayer(
              (avg_pool): AdaptiveAvgPool2d(output_size=1)
              (conv_du): Sequential(
                (0): Conv2d(64, 4, kernel_size=(1, 1), stride=(1, 1))
                (1): ReLU(inplace=True)
                (2): Conv2d(4, 64, kernel_size=(1, 1), stride=(1, 1))
                (3): Sigmoid()
              )
            )
          )
        )
        (30): Upsampler(
          (0): Conv2d(64, 256, kernel_size=(3, 3), stride=(1, 1), padding=(1, 1))
          (1): PixelShuffle(upscale_factor=2)
        )
        (31): Conv2d(64, 16, kernel_size=(1, 1), stride=(1, 1))
      )
      (2): Sequential(
        (0): RCAB(
          (body): Sequential(
            (0): Conv2d(32, 32, kernel_size=(3, 3), stride=(1, 1), padding=(1, 1))
            (1): ReLU(inplace=True)
            (2): Conv2d(32, 32, kernel_size=(3, 3), stride=(1, 1), padding=(1, 1))
            (3): CALayer(
              (avg_pool): AdaptiveAvgPool2d(output_size=1)
              (conv_du): Sequential(
                (0): Conv2d(32, 2, kernel_size=(1, 1), stride=(1, 1))
                (1): ReLU(inplace=True)
                (2): Conv2d(2, 32, kernel_size=(1, 1), stride=(1, 1))
                (3): Sigmoid()
              )
            )
          )
        )
        (1): RCAB(
          (body): Sequential(
            (0): Conv2d(32, 32, kernel_size=(3, 3), stride=(1, 1), padding=(1, 1))
            (1): ReLU(inplace=True)
            (2): Conv2d(32, 32, kernel_size=(3, 3), stride=(1, 1), padding=(1, 1))
            (3): CALayer(
              (avg_pool): AdaptiveAvgPool2d(output_size=1)
              (conv_du): Sequential(
                (0): Conv2d(32, 2, kernel_size=(1, 1), stride=(1, 1))
                (1): ReLU(inplace=True)
                (2): Conv2d(2, 32, kernel_size=(1, 1), stride=(1, 1))
                (3): Sigmoid()
              )
            )
          )
        )
        (2): RCAB(
          (body): Sequential(
            (0): Conv2d(32, 32, kernel_size=(3, 3), stride=(1, 1), padding=(1, 1))
            (1): ReLU(inplace=True)
            (2): Conv2d(32, 32, kernel_size=(3, 3), stride=(1, 1), padding=(1, 1))
            (3): CALayer(
              (avg_pool): AdaptiveAvgPool2d(output_size=1)
              (conv_du): Sequential(
                (0): Conv2d(32, 2, kernel_size=(1, 1), stride=(1, 1))
                (1): ReLU(inplace=True)
                (2): Conv2d(2, 32, kernel_size=(1, 1), stride=(1, 1))
                (3): Sigmoid()
              )
            )
          )
        )
        (3): RCAB(
          (body): Sequential(
            (0): Conv2d(32, 32, kernel_size=(3, 3), stride=(1, 1), padding=(1, 1))
            (1): ReLU(inplace=True)
            (2): Conv2d(32, 32, kernel_size=(3, 3), stride=(1, 1), padding=(1, 1))
            (3): CALayer(
              (avg_pool): AdaptiveAvgPool2d(output_size=1)
              (conv_du): Sequential(
                (0): Conv2d(32, 2, kernel_size=(1, 1), stride=(1, 1))
                (1): ReLU(inplace=True)
                (2): Conv2d(2, 32, kernel_size=(1, 1), stride=(1, 1))
                (3): Sigmoid()
              )
            )
          )
        )
        (4): RCAB(
          (body): Sequential(
            (0): Conv2d(32, 32, kernel_size=(3, 3), stride=(1, 1), padding=(1, 1))
            (1): ReLU(inplace=True)
            (2): Conv2d(32, 32, kernel_size=(3, 3), stride=(1, 1), padding=(1, 1))
            (3): CALayer(
              (avg_pool): AdaptiveAvgPool2d(output_size=1)
              (conv_du): Sequential(
                (0): Conv2d(32, 2, kernel_size=(1, 1), stride=(1, 1))
                (1): ReLU(inplace=True)
                (2): Conv2d(2, 32, kernel_size=(1, 1), stride=(1, 1))
                (3): Sigmoid()
              )
            )
          )
        )
        (5): RCAB(
          (body): Sequential(
            (0): Conv2d(32, 32, kernel_size=(3, 3), stride=(1, 1), padding=(1, 1))
            (1): ReLU(inplace=True)
            (2): Conv2d(32, 32, kernel_size=(3, 3), stride=(1, 1), padding=(1, 1))
            (3): CALayer(
              (avg_pool): AdaptiveAvgPool2d(output_size=1)
              (conv_du): Sequential(
                (0): Conv2d(32, 2, kernel_size=(1, 1), stride=(1, 1))
                (1): ReLU(inplace=True)
                (2): Conv2d(2, 32, kernel_size=(1, 1), stride=(1, 1))
                (3): Sigmoid()
              )
            )
          )
        )
        (6): RCAB(
          (body): Sequential(
            (0): Conv2d(32, 32, kernel_size=(3, 3), stride=(1, 1), padding=(1, 1))
            (1): ReLU(inplace=True)
            (2): Conv2d(32, 32, kernel_size=(3, 3), stride=(1, 1), padding=(1, 1))
            (3): CALayer(
              (avg_pool): AdaptiveAvgPool2d(output_size=1)
              (conv_du): Sequential(
                (0): Conv2d(32, 2, kernel_size=(1, 1), stride=(1, 1))
                (1): ReLU(inplace=True)
                (2): Conv2d(2, 32, kernel_size=(1, 1), stride=(1, 1))
                (3): Sigmoid()
              )
            )
          )
        )
        (7): RCAB(
          (body): Sequential(
            (0): Conv2d(32, 32, kernel_size=(3, 3), stride=(1, 1), padding=(1, 1))
            (1): ReLU(inplace=True)
            (2): Conv2d(32, 32, kernel_size=(3, 3), stride=(1, 1), padding=(1, 1))
            (3): CALayer(
              (avg_pool): AdaptiveAvgPool2d(output_size=1)
              (conv_du): Sequential(
                (0): Conv2d(32, 2, kernel_size=(1, 1), stride=(1, 1))
                (1): ReLU(inplace=True)
                (2): Conv2d(2, 32, kernel_size=(1, 1), stride=(1, 1))
                (3): Sigmoid()
              )
            )
          )
        )
        (8): RCAB(
          (body): Sequential(
            (0): Conv2d(32, 32, kernel_size=(3, 3), stride=(1, 1), padding=(1, 1))
            (1): ReLU(inplace=True)
            (2): Conv2d(32, 32, kernel_size=(3, 3), stride=(1, 1), padding=(1, 1))
            (3): CALayer(
              (avg_pool): AdaptiveAvgPool2d(output_size=1)
              (conv_du): Sequential(
                (0): Conv2d(32, 2, kernel_size=(1, 1), stride=(1, 1))
                (1): ReLU(inplace=True)
                (2): Conv2d(2, 32, kernel_size=(1, 1), stride=(1, 1))
                (3): Sigmoid()
              )
            )
          )
        )
        (9): RCAB(
          (body): Sequential(
            (0): Conv2d(32, 32, kernel_size=(3, 3), stride=(1, 1), padding=(1, 1))
            (1): ReLU(inplace=True)
            (2): Conv2d(32, 32, kernel_size=(3, 3), stride=(1, 1), padding=(1, 1))
            (3): CALayer(
              (avg_pool): AdaptiveAvgPool2d(output_size=1)
              (conv_du): Sequential(
                (0): Conv2d(32, 2, kernel_size=(1, 1), stride=(1, 1))
                (1): ReLU(inplace=True)
                (2): Conv2d(2, 32, kernel_size=(1, 1), stride=(1, 1))
                (3): Sigmoid()
              )
            )
          )
        )
        (10): RCAB(
          (body): Sequential(
            (0): Conv2d(32, 32, kernel_size=(3, 3), stride=(1, 1), padding=(1, 1))
            (1): ReLU(inplace=True)
            (2): Conv2d(32, 32, kernel_size=(3, 3), stride=(1, 1), padding=(1, 1))
            (3): CALayer(
              (avg_pool): AdaptiveAvgPool2d(output_size=1)
              (conv_du): Sequential(
                (0): Conv2d(32, 2, kernel_size=(1, 1), stride=(1, 1))
                (1): ReLU(inplace=True)
                (2): Conv2d(2, 32, kernel_size=(1, 1), stride=(1, 1))
                (3): Sigmoid()
              )
            )
          )
        )
        (11): RCAB(
          (body): Sequential(
            (0): Conv2d(32, 32, kernel_size=(3, 3), stride=(1, 1), padding=(1, 1))
            (1): ReLU(inplace=True)
            (2): Conv2d(32, 32, kernel_size=(3, 3), stride=(1, 1), padding=(1, 1))
            (3): CALayer(
              (avg_pool): AdaptiveAvgPool2d(output_size=1)
              (conv_du): Sequential(
                (0): Conv2d(32, 2, kernel_size=(1, 1), stride=(1, 1))
                (1): ReLU(inplace=True)
                (2): Conv2d(2, 32, kernel_size=(1, 1), stride=(1, 1))
                (3): Sigmoid()
              )
            )
          )
        )
        (12): RCAB(
          (body): Sequential(
            (0): Conv2d(32, 32, kernel_size=(3, 3), stride=(1, 1), padding=(1, 1))
            (1): ReLU(inplace=True)
            (2): Conv2d(32, 32, kernel_size=(3, 3), stride=(1, 1), padding=(1, 1))
            (3): CALayer(
              (avg_pool): AdaptiveAvgPool2d(output_size=1)
              (conv_du): Sequential(
                (0): Conv2d(32, 2, kernel_size=(1, 1), stride=(1, 1))
                (1): ReLU(inplace=True)
                (2): Conv2d(2, 32, kernel_size=(1, 1), stride=(1, 1))
                (3): Sigmoid()
              )
            )
          )
        )
        (13): RCAB(
          (body): Sequential(
            (0): Conv2d(32, 32, kernel_size=(3, 3), stride=(1, 1), padding=(1, 1))
            (1): ReLU(inplace=True)
            (2): Conv2d(32, 32, kernel_size=(3, 3), stride=(1, 1), padding=(1, 1))
            (3): CALayer(
              (avg_pool): AdaptiveAvgPool2d(output_size=1)
              (conv_du): Sequential(
                (0): Conv2d(32, 2, kernel_size=(1, 1), stride=(1, 1))
                (1): ReLU(inplace=True)
                (2): Conv2d(2, 32, kernel_size=(1, 1), stride=(1, 1))
                (3): Sigmoid()
              )
            )
          )
        )
        (14): RCAB(
          (body): Sequential(
            (0): Conv2d(32, 32, kernel_size=(3, 3), stride=(1, 1), padding=(1, 1))
            (1): ReLU(inplace=True)
            (2): Conv2d(32, 32, kernel_size=(3, 3), stride=(1, 1), padding=(1, 1))
            (3): CALayer(
              (avg_pool): AdaptiveAvgPool2d(output_size=1)
              (conv_du): Sequential(
                (0): Conv2d(32, 2, kernel_size=(1, 1), stride=(1, 1))
                (1): ReLU(inplace=True)
                (2): Conv2d(2, 32, kernel_size=(1, 1), stride=(1, 1))
                (3): Sigmoid()
              )
            )
          )
        )
        (15): RCAB(
          (body): Sequential(
            (0): Conv2d(32, 32, kernel_size=(3, 3), stride=(1, 1), padding=(1, 1))
            (1): ReLU(inplace=True)
            (2): Conv2d(32, 32, kernel_size=(3, 3), stride=(1, 1), padding=(1, 1))
            (3): CALayer(
              (avg_pool): AdaptiveAvgPool2d(output_size=1)
              (conv_du): Sequential(
                (0): Conv2d(32, 2, kernel_size=(1, 1), stride=(1, 1))
                (1): ReLU(inplace=True)
                (2): Conv2d(2, 32, kernel_size=(1, 1), stride=(1, 1))
                (3): Sigmoid()
              )
            )
          )
        )
        (16): RCAB(
          (body): Sequential(
            (0): Conv2d(32, 32, kernel_size=(3, 3), stride=(1, 1), padding=(1, 1))
            (1): ReLU(inplace=True)
            (2): Conv2d(32, 32, kernel_size=(3, 3), stride=(1, 1), padding=(1, 1))
            (3): CALayer(
              (avg_pool): AdaptiveAvgPool2d(output_size=1)
              (conv_du): Sequential(
                (0): Conv2d(32, 2, kernel_size=(1, 1), stride=(1, 1))
                (1): ReLU(inplace=True)
                (2): Conv2d(2, 32, kernel_size=(1, 1), stride=(1, 1))
                (3): Sigmoid()
              )
            )
          )
        )
        (17): RCAB(
          (body): Sequential(
            (0): Conv2d(32, 32, kernel_size=(3, 3), stride=(1, 1), padding=(1, 1))
            (1): ReLU(inplace=True)
            (2): Conv2d(32, 32, kernel_size=(3, 3), stride=(1, 1), padding=(1, 1))
            (3): CALayer(
              (avg_pool): AdaptiveAvgPool2d(output_size=1)
              (conv_du): Sequential(
                (0): Conv2d(32, 2, kernel_size=(1, 1), stride=(1, 1))
                (1): ReLU(inplace=True)
                (2): Conv2d(2, 32, kernel_size=(1, 1), stride=(1, 1))
                (3): Sigmoid()
              )
            )
          )
        )
        (18): RCAB(
          (body): Sequential(
            (0): Conv2d(32, 32, kernel_size=(3, 3), stride=(1, 1), padding=(1, 1))
            (1): ReLU(inplace=True)
            (2): Conv2d(32, 32, kernel_size=(3, 3), stride=(1, 1), padding=(1, 1))
            (3): CALayer(
              (avg_pool): AdaptiveAvgPool2d(output_size=1)
              (conv_du): Sequential(
                (0): Conv2d(32, 2, kernel_size=(1, 1), stride=(1, 1))
                (1): ReLU(inplace=True)
                (2): Conv2d(2, 32, kernel_size=(1, 1), stride=(1, 1))
                (3): Sigmoid()
              )
            )
          )
        )
        (19): RCAB(
          (body): Sequential(
            (0): Conv2d(32, 32, kernel_size=(3, 3), stride=(1, 1), padding=(1, 1))
            (1): ReLU(inplace=True)
            (2): Conv2d(32, 32, kernel_size=(3, 3), stride=(1, 1), padding=(1, 1))
            (3): CALayer(
              (avg_pool): AdaptiveAvgPool2d(output_size=1)
              (conv_du): Sequential(
                (0): Conv2d(32, 2, kernel_size=(1, 1), stride=(1, 1))
                (1): ReLU(inplace=True)
                (2): Conv2d(2, 32, kernel_size=(1, 1), stride=(1, 1))
                (3): Sigmoid()
              )
            )
          )
        )
        (20): RCAB(
          (body): Sequential(
            (0): Conv2d(32, 32, kernel_size=(3, 3), stride=(1, 1), padding=(1, 1))
            (1): ReLU(inplace=True)
            (2): Conv2d(32, 32, kernel_size=(3, 3), stride=(1, 1), padding=(1, 1))
            (3): CALayer(
              (avg_pool): AdaptiveAvgPool2d(output_size=1)
              (conv_du): Sequential(
                (0): Conv2d(32, 2, kernel_size=(1, 1), stride=(1, 1))
                (1): ReLU(inplace=True)
                (2): Conv2d(2, 32, kernel_size=(1, 1), stride=(1, 1))
                (3): Sigmoid()
              )
            )
          )
        )
        (21): RCAB(
          (body): Sequential(
            (0): Conv2d(32, 32, kernel_size=(3, 3), stride=(1, 1), padding=(1, 1))
            (1): ReLU(inplace=True)
            (2): Conv2d(32, 32, kernel_size=(3, 3), stride=(1, 1), padding=(1, 1))
            (3): CALayer(
              (avg_pool): AdaptiveAvgPool2d(output_size=1)
              (conv_du): Sequential(
                (0): Conv2d(32, 2, kernel_size=(1, 1), stride=(1, 1))
                (1): ReLU(inplace=True)
                (2): Conv2d(2, 32, kernel_size=(1, 1), stride=(1, 1))
                (3): Sigmoid()
              )
            )
          )
        )
        (22): RCAB(
          (body): Sequential(
            (0): Conv2d(32, 32, kernel_size=(3, 3), stride=(1, 1), padding=(1, 1))
            (1): ReLU(inplace=True)
            (2): Conv2d(32, 32, kernel_size=(3, 3), stride=(1, 1), padding=(1, 1))
            (3): CALayer(
              (avg_pool): AdaptiveAvgPool2d(output_size=1)
              (conv_du): Sequential(
                (0): Conv2d(32, 2, kernel_size=(1, 1), stride=(1, 1))
                (1): ReLU(inplace=True)
                (2): Conv2d(2, 32, kernel_size=(1, 1), stride=(1, 1))
                (3): Sigmoid()
              )
            )
          )
        )
        (23): RCAB(
          (body): Sequential(
            (0): Conv2d(32, 32, kernel_size=(3, 3), stride=(1, 1), padding=(1, 1))
            (1): ReLU(inplace=True)
            (2): Conv2d(32, 32, kernel_size=(3, 3), stride=(1, 1), padding=(1, 1))
            (3): CALayer(
              (avg_pool): AdaptiveAvgPool2d(output_size=1)
              (conv_du): Sequential(
                (0): Conv2d(32, 2, kernel_size=(1, 1), stride=(1, 1))
                (1): ReLU(inplace=True)
                (2): Conv2d(2, 32, kernel_size=(1, 1), stride=(1, 1))
                (3): Sigmoid()
              )
            )
          )
        )
        (24): RCAB(
          (body): Sequential(
            (0): Conv2d(32, 32, kernel_size=(3, 3), stride=(1, 1), padding=(1, 1))
            (1): ReLU(inplace=True)
            (2): Conv2d(32, 32, kernel_size=(3, 3), stride=(1, 1), padding=(1, 1))
            (3): CALayer(
              (avg_pool): AdaptiveAvgPool2d(output_size=1)
              (conv_du): Sequential(
                (0): Conv2d(32, 2, kernel_size=(1, 1), stride=(1, 1))
                (1): ReLU(inplace=True)
                (2): Conv2d(2, 32, kernel_size=(1, 1), stride=(1, 1))
                (3): Sigmoid()
              )
            )
          )
        )
        (25): RCAB(
          (body): Sequential(
            (0): Conv2d(32, 32, kernel_size=(3, 3), stride=(1, 1), padding=(1, 1))
            (1): ReLU(inplace=True)
            (2): Conv2d(32, 32, kernel_size=(3, 3), stride=(1, 1), padding=(1, 1))
            (3): CALayer(
              (avg_pool): AdaptiveAvgPool2d(output_size=1)
              (conv_du): Sequential(
                (0): Conv2d(32, 2, kernel_size=(1, 1), stride=(1, 1))
                (1): ReLU(inplace=True)
                (2): Conv2d(2, 32, kernel_size=(1, 1), stride=(1, 1))
                (3): Sigmoid()
              )
            )
          )
        )
        (26): RCAB(
          (body): Sequential(
            (0): Conv2d(32, 32, kernel_size=(3, 3), stride=(1, 1), padding=(1, 1))
            (1): ReLU(inplace=True)
            (2): Conv2d(32, 32, kernel_size=(3, 3), stride=(1, 1), padding=(1, 1))
            (3): CALayer(
              (avg_pool): AdaptiveAvgPool2d(output_size=1)
              (conv_du): Sequential(
                (0): Conv2d(32, 2, kernel_size=(1, 1), stride=(1, 1))
                (1): ReLU(inplace=True)
                (2): Conv2d(2, 32, kernel_size=(1, 1), stride=(1, 1))
                (3): Sigmoid()
              )
            )
          )
        )
        (27): RCAB(
          (body): Sequential(
            (0): Conv2d(32, 32, kernel_size=(3, 3), stride=(1, 1), padding=(1, 1))
            (1): ReLU(inplace=True)
            (2): Conv2d(32, 32, kernel_size=(3, 3), stride=(1, 1), padding=(1, 1))
            (3): CALayer(
              (avg_pool): AdaptiveAvgPool2d(output_size=1)
              (conv_du): Sequential(
                (0): Conv2d(32, 2, kernel_size=(1, 1), stride=(1, 1))
                (1): ReLU(inplace=True)
                (2): Conv2d(2, 32, kernel_size=(1, 1), stride=(1, 1))
                (3): Sigmoid()
              )
            )
          )
        )
        (28): RCAB(
          (body): Sequential(
            (0): Conv2d(32, 32, kernel_size=(3, 3), stride=(1, 1), padding=(1, 1))
            (1): ReLU(inplace=True)
            (2): Conv2d(32, 32, kernel_size=(3, 3), stride=(1, 1), padding=(1, 1))
            (3): CALayer(
              (avg_pool): AdaptiveAvgPool2d(output_size=1)
              (conv_du): Sequential(
                (0): Conv2d(32, 2, kernel_size=(1, 1), stride=(1, 1))
                (1): ReLU(inplace=True)
                (2): Conv2d(2, 32, kernel_size=(1, 1), stride=(1, 1))
                (3): Sigmoid()
              )
            )
          )
        )
        (29): RCAB(
          (body): Sequential(
            (0): Conv2d(32, 32, kernel_size=(3, 3), stride=(1, 1), padding=(1, 1))
            (1): ReLU(inplace=True)
            (2): Conv2d(32, 32, kernel_size=(3, 3), stride=(1, 1), padding=(1, 1))
            (3): CALayer(
              (avg_pool): AdaptiveAvgPool2d(output_size=1)
              (conv_du): Sequential(
                (0): Conv2d(32, 2, kernel_size=(1, 1), stride=(1, 1))
                (1): ReLU(inplace=True)
                (2): Conv2d(2, 32, kernel_size=(1, 1), stride=(1, 1))
                (3): Sigmoid()
              )
            )
          )
        )
        (30): Upsampler(
          (0): Conv2d(32, 128, kernel_size=(3, 3), stride=(1, 1), padding=(1, 1))
          (1): PixelShuffle(upscale_factor=2)
        )
        (31): Conv2d(32, 8, kernel_size=(1, 1), stride=(1, 1))
      )
    )
    (tail): ModuleList(
      (0): Conv2d(64, 3, kernel_size=(3, 3), stride=(1, 1), padding=(1, 1))
      (1): Conv2d(64, 3, kernel_size=(3, 3), stride=(1, 1), padding=(1, 1))
      (2): Conv2d(32, 3, kernel_size=(3, 3), stride=(1, 1), padding=(1, 1))
      (3): Conv2d(16, 3, kernel_size=(3, 3), stride=(1, 1), padding=(1, 1))
    )
    (add_mean): MeanShift(3, 3, kernel_size=(1, 1), stride=(1, 1))
  )
)
[DataParallel(
  (module): DownBlock(
    (dual_module): Sequential(
      (0): Sequential(
        (0): Conv2d(3, 8, kernel_size=(3, 3), stride=(2, 2), padding=(1, 1), bias=False)
        (1): LeakyReLU(negative_slope=0.2, inplace=True)
      )
      (1): Conv2d(8, 3, kernel_size=(3, 3), stride=(1, 1), padding=(1, 1), bias=False)
    )
  )
), DataParallel(
  (module): DownBlock(
    (dual_module): Sequential(
      (0): Sequential(
        (0): Conv2d(3, 8, kernel_size=(3, 3), stride=(2, 2), padding=(1, 1), bias=False)
        (1): LeakyReLU(negative_slope=0.2, inplace=True)
      )
      (1): Conv2d(8, 3, kernel_size=(3, 3), stride=(1, 1), padding=(1, 1), bias=False)
    )
  )
), DataParallel(
  (module): DownBlock(
    (dual_module): Sequential(
      (0): Sequential(
        (0): Conv2d(3, 8, kernel_size=(3, 3), stride=(2, 2), padding=(1, 1), bias=False)
        (1): LeakyReLU(negative_slope=0.2, inplace=True)
      )
      (1): Conv2d(8, 3, kernel_size=(3, 3), stride=(1, 1), padding=(1, 1), bias=False)
    )
  )
)]
The number of parameters is 5.40M
[Epoch 1]	Learning rate: 1.00e-4
[1600/1600]	[L1: 45.4612]	108.4+3.1s

Evaluation:
[my_val x8]	PSNR: 21.46 (Best: 21.46 @epoch 1)
Total time: 3.78s

[Epoch 2]	Learning rate: 1.00e-4
[1600/1600]	[L1: 45.5559]	92.6+4.0s

Evaluation:
[my_val x8]	PSNR: 21.90 (Best: 21.90 @epoch 2)
Total time: 3.75s
…
